models/default_model.pth (torch, 251215 bytes, 10 tensors)

conv1.weight f4 [6, 3, 5, 5]
00000000: 7891 5fbd 80ab 73bd 3554 02bd a56b 303d
00000010: 073f d83c 6411 f03d 5f9f eebd 9ecc d7bd
00000020: 3b64 cbbd f897 12be d47e 5f3c ad69 c23c
00000030: 07c1 17be ebf2 02be e300 b0bb 7db1 8338
00000040: 2973 a53c 17a8 b8bd ee69 1dbd 788d a3bc
00000050: 616b 32be b260 6a3d 6a1f f43d 4fff d53c
00000060: 9fa6 40be 1e27 c93d 0bb6 173e 3842 133d
00000070: fb46 e1bd 6ffb 20bd 0dcb e63d b04c 19bc
00000080: 7b06 e43d 9f5b da3d 20a1 9bbd b860 403d
00000090: 83da 2b3e 65d9 273c a154 2fbd e989 ed3c
000000a0: 77a2 9d3c a088 62bd 56a0 a73d 46ae 483d
000000b0: 9fcd c33d d7ec 833d cc10 cf3d 9952 2b3e
000000c0: f8bc 9f3d 9744 d4bc 3f7b a93d 3ef5 243e
000000d0: cfdb 65bd da3c 353c a9e8 77bd 5526 d93d
000000e0: 080a f53d 9fef dc3d 6fef 063d 2ba6 febd
000000f0: d3d6 0e3e 79bf 873d 0ddc 703d 41bf 063e
00000100: fdcc c1bc 3d44 123e 72f6 e6bc d464 95bc
00000110: 10b8 ccbc 3ad3 e83d e9b5 83bb 301e ef3d
00000120: d9a4 0fbc c03b e33d a7c7 c7bd 8f56 113d
00000130: 765d acbd 96ab 05be ac55 15bd 717f 893c
00000140: aa59 d93d a9b5 aebd ac69 15bd 9a63 cfbb
00000150: 1764 9ebd e2e6 363e 5665 973d eaa9 1a3e
00000160: 779f 0b3e f119 d13c 5716 633e 220d 1a3e
00000170: 73fb cd3d 5009 423e 183a 063e 325c 913d
00000180: 20bd 543e 0b2f 643e 9498 e73d 82ee 2f3e
00000190: 63a7 07be 08d3 253c 2afc 703c accc 443c
000001a0: 20af 0bbe 3f30 17be 0ecd 31bb 3ad0 09be
000001b0: d8fe d9bc c018 23be faeb 02be d650 c3bc
000001c0: 2710 273d 8bfd 5cbd 73d0 6dbb 5a0f 0fbe
000001d0: dac1 abbd 53ec 09be 7259 debd 853c 60be
000001e0: f571 09be 5c56 72be 8201 afbd 147a 21be
000001f0: a604 0dbe 7da9 013e ebf7 933d 16b2 443e
00000200: 9e59 483d 1cb4 b03d 4e7d 3b3d 38aa 3a3e
00000210: f732 343e 8e9e 133e 0dc9 373e c356 c9bc
00000220: 7968 883d 240a babc f681 e7bc f6e1 693d
00000230: fb32 09be 6b56 103d d243 6f3d a9fb 7d3d
00000240: b4da ab3d ec27 50bd 654d 463d 2976 94bd
00000250: 4c75 0fbb 3843 aabc 7cf1 a03d 5012 0b3e
00000260: c75b 503d d7c2 cf3c 9430 a93c 3bbe c03d
00000270: d553 253e 9cf7 343e 22ee 21be b821 b2bd
00000280: 8acf 3c3d 1b82 433e a6c8 0d3e 8195 83bd
00000290: 4fca edbd d95f f23d cefe ac3d 001c 4f3e
000002a0: 4e4a 22be 799c bebd 3859 663d 7b73 af3b
000002b0: f054 363e 3614 24bd a563 7fbd 2e59 5a3d
000002c0: 91a4 aa3d 33f5 f6bd 9dd5 2abe 1f1f 2dbe
000002d0: 49c4 92bd 0002 f73d 0525 abbc e275 a1be
000002e0: 3653 00be 34ca 70bd d4e6 ff3d a97c 833d
000002f0: 8eec 90be 1bc5 49be 6413 e7bd fb0e f03d
00000300: 9c4c 783d 8a0e 1cbe d46c 40be d797 4bbd
00000310: 92f7 8d3d ef22 163c e9ef 0cbe 6309 44b9
00000320: 9364 d1bd 074e bb3d a5f0 70bd 0e22 8bbd
00000330: a0a0 4ebd 06fa df3d d0cc 4b3e 9a2c cd3d
00000340: 4c61 84be 5e99 e0bd b3eb 7e3d c20c e63d
00000350: 5d4e bb3d a31b 1fbe 5a99 2fbe b76b 783d
00000360: 6ada a03d bf3e 143e 5798 05bd 0e93 973b
00000370: ff3a 9fbd 11aa 25bc a64f f83d fa3e b63b
00000380: bd3c 8a3d a304 aa3b dc3b ef3c 52e0 2ebe
00000390: cbc8 943d 44e0 62bd 6152 c03a e278 f5bd
000003a0: a7b4 043d f8e0 983c 52fe 2fbd ced4 3f3e
000003b0: 6572 1cbe 6092 a4bc 3428 d73d d846 04bd
000003c0: 3970 2c3e 1901 673d 5700 153d 6679 173d
000003d0: 6b9a f43c e36f 0d3e 5bdd 613e 6574 c7bb
000003e0: 67d1 43bc 5c39 193e a98b 9e3c c6d2 453c
000003f0: 4c7e edbc e367 1d3e 484a 9a3d 85bb bebd
-0.05458209 -0.059489727 -0.031818587 0.043071408 0.026397241 0.11722067 -0.116514914 -0.105370745
-0.09931227 -0.14315784 0.013641078 0.02373203 -0.14819728 -0.12787978 -0.0053711995 6.2796265e-05
0.020196514 -0.090164356 -0.0384311 -0.019964918 -0.17423774 0.057221122 0.11920054 0.026122717
-0.18813561 0.09821914 0.14815538 0.035951823 -0.109998666 -0.039302286 0.112691976 -0.009356663
0.111340486 0.106620066 -0.075990915 0.04696724 0.16782574 0.010244702 -0.042805318 0.028996425
0.019242508 -0.055306077 0.081848785 0.048994325 0.095607035 0.06441658 0.101106256 0.16730727
0.07799715 -0.025911612 0.082754605 0.16109177 -0.05611783 0.011061871 -0.060524616 0.106030144
0.11964804 0.107878916 0.032943185 -0.12434038 0.13949136 0.066283174 0.058803607 0.13158895
-0.023657316 0.14283843 -0.028193686 -0.018236555 -0.024990112 0.11368413 -0.004019488 0.1167568
-0.00876733 0.11095381 -0.097548775 0.03548294 -0.08416264 -0.13053736 -0.036458656 0.016784402
0.10612805 -0.08530743 -0.03647773 -0.006329012 -0.077339344 0.17861512 0.07392375 0.1510388
0.1363505 0.025525065 0.2217649 0.15044072 0.10057726 0.18948865 0.13108099 0.07097663
0.2077527 0.2228357 0.11308399 0.17180827 -0.13247447 0.010121115 0.014708558 0.012011688
-0.13641024 -0.14764498 -0.0027130279 -0.13458338 -0.026610777 -0.1592741 -0.1278533 -0.023842257
0.04078689 -0.053952735 -0.0036287575 -0.139707 -0.083865836 -0.13469057 -0.10856904 -0.21898086
-0.13422377 -0.23665756 -0.085452095 -0.15769225 -0.13771304 0.12662311 0.07225021 0.1920856
0.04891359 0.08628103 0.045773797 0.18228996 0.17597567 0.14415953 0.17947789 -0.024577504
0.066605516 -0.022709914 -0.028260212 0.05710026 -0.13398354 0.035238665 0.058414288 0.06200758
0.08391324 -0.050819322 0.048413653 -0.072491 -0.0021889983 -0.020784006 0.078585595 0.13581204
0.050868776 0.025361462 0.020653047 0.094112836 0.1614526 0.1767258 -0.15813497 -0.086978376
0.046096362 0.190926 0.13846073 -0.06425 -0.11610853 0.11834688 0.08447038 0.20225525
-0.15848657 -0.093071885 0.05623743 0.0053543425 0.17805839 -0.040058337 -0.062350888 0.053307705
0.0833217 -0.12058487 -0.1668305 -0.16906403 -0.07166345 0.12060928 -0.020891676 -0.3153525
-0.12531742 -0.058786586 0.12495199 0.064202614 -0.28305477 -0.19704096 -0.11282995 0.11721607
0.060619935 -0.15239921 -0.18791515 -0.049705353 0.06931986 0.009163602 -0.13763393 -0.00018695513
-0.10224261 0.09145742 -0.058823247 -0.06793605 -0.050446153 0.1093636 0.19902349 0.10018273
-0.25855482 -0.109667525 0.0622365 0.11232902 0.09145806 -0.15537886 -0.17148343 0.0606496
0.07854159 0.1447706 -0.032615986 0.0046256846 -0.077749245 -0.010111348 0.12124567 0.0055617066
0.06749866 0.005188541 0.029203348 -0.17077759 0.07264861 -0.055389658 0.0014672988 -0.11985947
0.032398846 0.018661961 -0.042967148 0.18733522 -0.15278013 -0.020089328 0.10505715 -0.032294124
0.16839685 0.05639753 0.036377277 0.03698101 0.029858788 0.13812213 0.22057097 -0.0060868734
-0.011951781 0.14963287 0.019353705 0.012074178 -0.028990887 0.15371661 0.07533699 -0.0931311

conv1.bias f4 [6]
00000000: 704e d3bd 1584 6fbe 9bcf f93d cf95 6fbd
00000010: 2eca 9c3c 2048 50bd
-0.10317695 -0.23390229 0.12197801 -0.058492478 0.019139376 -0.050850034

conv2.weight f4 [16, 6, 5, 5]
00000000: 2e19 e1ba 7b4e a4bc 8c21 2a3c 8eee b8bd
00000010: db40 40bd d7ba d43b 645c 9cbd 5ae3 5cbd
00000020: 9b0e 03be 3fc5 ffbc 72a4 d03d 39fb 313d
00000030: 6fe2 fa3c 97d3 e2bd 7528 8cbd eb48 a53d
00000040: 746c 883d 0284 1c3e 7dfe dd3d 958a 9e3d
00000050: a81f 903c d9fe d0bd 6b9d dabd e495 87bd
00000060: e425 a239 c595 053e 0685 7a3e d8ac 553e
00000070: 5852 253e e05c 413e 6565 7e3d 53eb 8d3d
00000080: 4729 b6bd 01ce 90bd fcff fcbd d1d1 74bd
00000090: 0626 dbbd a8c0 1ebe 7db4 81be 969e 45be
000000a0: a8ea 173c 69a3 95bd 9816 e13c 2230 b1bd
000000b0: 173e dcbd 1f56 47bc 6fdc 163d 2988 083e
000000c0: 16d4 cc3c ea5f 8cbd 448e aa3d 1738 e8bb
000000d0: c442 cb3c 0eb4 bd3d 95c0 c1bb b76b 193d
000000e0: 45a8 823c 6c1a 9dbb c654 133c 2a2b 0dbd
000000f0: 384c 4cbd a4bd 463d 52f3 d2bd fa7a adbd
00000100: 71ba afbd 76de bbbd b196 8dbd 6e10 ddbd
00000110: 5d8e 4fbd 08d4 07be b0e7 98bd 54ce 09be
00000120: 9e85 3cbe 5772 33bd 3806 0bbe e103 b13d
00000130: 363f 513e bbea 863e 42bf 9a3e 184c 4e3e
00000140: d14a ea3c 345c 9e3d e487 1b3e 227f 5e3d
00000150: 403c 2ebd 313f 1e3c 3e43 11be 4fff 88be
00000160: 375d a9be 6b02 91be 6970 4d3d 99ed dcbc
00000170: 8c41 a6bd d5ac 29be ed4e 4ebe 6b1c 8ebc
00000180: d5d3 10bd 7108 09bd 8217 ebbc e689 e3bd
00000190: 9b27 b43d 5cc1 f6bc 5b40 b6bc 5d9b a4bd
000001a0: e6a8 433d 1b1e 383e 0dbc 073e a10a 653e
000001b0: 794a 313e e03c 2e3e dc9f 243e 7ffa 4c3d
000001c0: e363 d7bd 0639 7cbd 997a cb3c b0c9 093e
000001d0: eee2 593e b070 423e 86f1 9b3d 82b0 193e
000001e0: fb28 3e3d b1c2 b8bc fce1 18bd 7437 acbc
000001f0: 3eef 333d cd2c f93c 9696 7bbd 96db 73bc
00000200: 6282 2c3c d1df 873c a241 01bd e21b 053c
00000210: ee75 9c3d 1991 73bd 9fc4 2e3c a621 c83d
00000220: ba5f 2e3d 43d5 2cbb 0782 f7bd 2a2a dbbd
00000230: 4377 f53c b475 7f3e 3f05 803e 00ab 833e
00000240: 0138 193e ebee 95bd 273e c4bc 7011 ebbd
00000250: c84c 03be bc3a 423d 741a a33b b4bc 1bbd
00000260: 95b3 293c 6f05 e8bc d649 0dbe 5618 1bbd
00000270: a0c7 01bb a6e5 c4bc 63f5 babd 2918 28bd
00000280: 8b4b 503c 60c6 5fba 80dc 6abd 646b 1b3d
00000290: a1d4 343d 9889 af3c 8de7 b23d 0273 a43d
000002a0: b9ef f83c 3d3b e93c b207 5b3c 405b 1b3e
000002b0: aecc 1c3e c8a7 293e 5c4f b63d 4105 3e3e
000002c0: 33cd 0f3d 14bb 0dbd 3449 89bd 4bd5 02be
000002d0: b4c8 cc3c bb3f 423d f946 363d 1a7e 28bd
000002e0: 37e5 83bc 0ead 0c3e a150 a1bd b16d 62bd
000002f0: 1011 1fbc c888 1bbe 7ca5 f23d c386 2b3d
00000300: 0bdb 213b ee3c 45bd 9832 6cbd 1774 1e3e
00000310: a4e0 c93d ba62 1c3d 924e 36bd 5ddc 8cbd
00000320: 5771 6e3e 8524 e63d 3ac5 5e3d 9d16 dc3b
00000330: 6d08 303d 7aa7 363e 9d5f 003d b346 d83c
00000340: 954f e5bd d953 523d 028e 613d 9236 99bc
00000350: b92c a7bd 4754 e6bd 3138 d1bc a2f9 5a3e
00000360: d00e 9dbc a010 c8bc 4184 c0bd 7a42 98bc
00000370: 2aa7 5e3e c625 a03d 2224 7bbd 072f f6bc
00000380: 72e0 e7bd 47c4 b23d b000 ecbc f8a9 963d
00000390: 7698 853b 8cf7 30bd 3a93 b23d ed34 e73d
000003a0: 74bc f43c ba38 6e3d 8cc6 19bd 7388 e0bc
000003b0: 7459 1f3c a96b 883d 4907 3bbd 4b85 f1bc
000003c0: 5deb 93bc 0b67 0a3e 77d8 f93c a37f 863d
000003d0: 577d cb3d b428 f43d 46e0 a83d 222e 513e
000003e0: 25ec 383e 0be8 963d d5a6 5bbe 8d04 cbbe
000003f0: a64f ecbe fd85 22bf 03cb cfbe 4fff 7ebe
-0.0017173642 -0.020056954 0.010383975 -0.09029876 -0.04693685 0.0064919996 -0.076348096 -0.053927757
-0.1279854 -0.031221984 0.101876155 0.043452475 0.03062555 -0.11075514 -0.06843654 0.080705486
0.06661311 0.15284732 0.108395554 0.07741276 0.01759322 -0.10204858 -0.10674556 -0.06620386
0.0003092728 0.13045414 0.24464807 0.20866716 0.16144693 0.18883085 0.062108416 0.0692965
-0.08894592 -0.07070542 -0.12353513 -0.05977041 -0.10700612 -0.1550318 -0.25333014 -0.19298777
0.009272255 -0.07306559 0.027476594 -0.08651759 -0.1075403 -0.012166529 0.036831316 0.13333191
0.025003474 -0.06854232 0.08327916 -0.0070867646 0.02481211 0.09262858 -0.00591285 0.03745624
0.015949378 -0.0047944095 0.0089923795 -0.034464993 -0.049877375 0.0485207 -0.10300316 -0.084707215
-0.08580483 -0.091732904 -0.06913508 -0.10794149 -0.050672878 -0.13264477 -0.07466066 -0.13457614
-0.18410346 -0.043810215 -0.13576591 0.08643318 0.2043427 0.2635096 0.30224043 0.20146215
0.028600128 0.0773243 0.15188557 0.054320462 -0.042537928 0.009658621 -0.14185807 -0.26757285
-0.3307893 -0.28322157 0.05015603 -0.026968764 -0.08117971 -0.16569836 -0.20147295 -0.017347535
-0.03535827 -0.033455316 -0.028697733 -0.111102864 0.08796617 -0.030121498 -0.022247484 -0.08037446
0.047768496 0.17980234 0.1325533 0.22367336 0.17313565 0.1701541 0.16076607 0.05004358
-0.10517099 -0.06157782 0.024838733 0.13455844 0.21277973 0.189883 0.07614426 0.15008739
0.0464258 -0.022553774 -0.03732489 -0.021022536 0.04392933 0.03041687 -0.061422907 -0.014883896
0.010529133 0.016586216 -0.031556733 0.008124324 0.07639681 -0.059464548 0.010666995 0.09772043
0.04257176 -0.002637223 -0.120853476 -0.107014015 0.029964095 0.24947244 0.25004002 0.257164
0.1496277 -0.073209606 -0.023955418 -0.11477935 -0.12822258 0.047419295 0.0049775187 -0.03802176
0.010357757 -0.028322903 -0.13797697 -0.037865005 -0.0019802824 -0.024035286 -0.09128835 -0.041038666
0.012713323 -0.0008536335 -0.05733919 0.037944213 0.04414809 0.021427915 0.08735571 0.080297485
0.030387746 0.02847063 0.013368534 0.15171528 0.15312454 0.1656791 0.08901855 0.18556692
0.035107803 -0.03460224 -0.067034155 -0.12776677 0.024998046 0.04742406 0.04450128 -0.041135885
-0.01610051 0.1373789 -0.07876707 -0.05528039 -0.009708658 -0.15188897 0.1184797 0.041876566
0.002469721 -0.04815381 -0.057665437 0.15473972 0.098573 0.03818009 -0.044508524 -0.068779685
0.23285423 0.11237434 0.05438731 0.006716563 0.042976785 0.17837325 0.031341184 0.0264009
-0.1119682 0.051349495 0.05506707 -0.018702779 -0.08162827 -0.112465434 -0.02553949 0.2138429
-0.019172102 -0.02442199 -0.094002254 -0.018586386 0.21743456 0.07819705 -0.061313756 -0.030051721
-0.113221064 0.08728843 -0.028808922 0.07356638 0.0040770127 -0.04320483 0.087194875 0.11289392
0.029875018 0.058159567 -0.037542865 -0.027408814 0.009725917 0.066611595 -0.045661245 -0.029482504
-0.018056566 0.1351587 0.030498726 0.065673135 0.09936016 0.11921826 0.08245902 0.20427755
0.18058832 0.073684774 -0.2145036 -0.3965191 -0.46154517 -0.634857 -0.40584573 -0.2490208

conv2.bias f4 [16]
00000000: 522e b7bd 8c3f ce3e ca53 be3e b646 963e
00000010: 2258 493c 2bc5 fbbd a391 25be 7c5d 4ebe
00000020: b4ae 5fbc 911e 8abc 23f2 153e e515 45be
00000030: 514e 313d cc28 f73c a0cc 9fbd 4d5a 88bd
-0.08944382 0.40282857 0.371733 0.29350823 0.012289079 -0.12293466 -0.16168837 -0.20152849
-0.013652492 -0.016860278 0.14643149 -0.19246633 0.04328758 0.03017082 -0.07802701 -0.066578485

fc1.weight f4 [120, 400]
00000000: 5680 a83d 0092 3e3e b533 293e 27c3 d13d
00000010: 5bca 1f3e 62bd a43d 1601 f93d b730 843d
00000020: 8014 5d3e d493 833e be4c 843d 6345 c2bd
00000030: 817c a8bc 7629 73bd 5927 113e b754 243c
00000040: 0043 8eba ee23 1a3e d7fd 1a3c 6c9e b13d
00000050: bc7e 2cbd 9fd8 87bd b220 cf3c 53cd 1dbe
00000060: 15d5 dfbd f7c6 90bd bfd1 e7bd 81ce dbbd
00000070: 1a5f 1a39 8c6a 7b3d fb13 783c 34bb 3e3e
00000080: f554 683e 7d2b ac3d cf83 bbbc 3a02 163e
00000090: 496b 083e 5ad6 153e b59c a83d b58d 0ebe
000000a0: 8962 91be 12d9 b9bc 9ef0 8b3c 2799 d43d
000000b0: 7eb9 fd3c 0009 45be 12df fa3d 84ec 333d
000000c0: 2e92 343e afd3 103d 53c0 05bd a53f 04be
000000d0: 378f b4be 9fdb b3be f0c0 5bbe 216a aabe
000000e0: 5877 8cbe aaa2 09be f342 7dbe dd32 26be
000000f0: 7fb1 40be 0bf8 c4bd e918 abbe 5102 e4be
00000100: c9dd 74be 4109 d9bd b2e9 cbbd 710e 9ebd
00000110: 6dd8 25be d4f5 07bd ba4d edbd 247f 103d
00000120: 4dc5 083d 09f4 d13c 30d6 6cbd 1d04 9f3e
00000130: 8140 173e 3ed2 bc3d 5a2e 113e a74d 883e
00000140: 9c47 bdbc 82cd b0bc 5a90 773d 80b5 d33d
00000150: 32b1 433c c8af b6bd 13f2 d6bd bb1d cabd
00000160: 472c 27bc c5f9 bc3d f394 c9bd 49ac debd
00000170: f7c1 d2bc a16a c9bb aa41 f23c f276 d4bc
00000180: a77c 61bc 66dc 023e 5cb0 b83d 20f2 f43c
00000190: c3e9 293e ca78 ca3d 89ae c13c d22c 713e
000001a0: 1824 4fbc cb1e 0f3e e6e7 8b3e 884f 0d3e
000001b0: bfd2 ae3d 0a71 973d 7590 9fbc 1806 003e
000001c0: d316 63bd d99e c03d dbe6 bdbb 7dfd 33bd
000001d0: 6c5e 88bd ac1e a73b ca32 debb f4f2 25be
000001e0: 5b4e a13c bfbc 35bc cb1e 01bd 30ba f33c
000001f0: a4fa 95bc a8ec a63d 1d5a ae3d fe81 1c3e
00000200: afbf 00bc 3a4d 603e f0bb bc3c d2fa 6cbd
00000210: 8fc0 c03c 0fb9 27bd d5db a03d accd 0dbe
00000220: 5f04 7d3d b886 97bd e4ec 45be e34c 40be
00000230: 66a6 c4bd 8290 883e ff1d bd3d a2b9 2cbd
00000240: 2ecc aabd deec 28be e659 f93d 8229 293e
00000250: bb95 f93d 71d8 e5bd b882 193c 3d11 0d3d
00000260: c95b 1c3e c54a 583c 6311 cabc 41fe 41bd
00000270: a4e6 d6bd 14eb 9cbd 6412 8b3d fae9 8d3d
00000280: 8dde 31bd a402 70bc 9a78 dfbb 4b74 6a3c
00000290: 1c4b ac3c 71b7 b13d 9dbe 2a3e db2a 9d3d
000002a0: 9c1b f4bd a0df 04be 9a75 973d c766 c33d
000002b0: 5fa8 963d 2cfb cebd 72c8 7ebc 255b 653e
000002c0: cb75 2f3e b395 0d3e 3986 c3bb 961a d03d
000002d0: 0346 c5bd 2c8c 953d ae06 ea3b 7a2b 9ebc
000002e0: 5a9f 183d 44bb d43c 6c31 b7bd 46d0 80bd
000002f0: 6de1 2ebd 4968 403b 9b19 efbc b2d5 29bc
00000300: 5f7f dcbd ff5e 513d bc29 0b3d 21db 81bd
00000310: a984 3bbd 851d eebc 9610 893c 4cc5 6c3c
00000320: 902c 9f3c deb3 0d3b d16f 083d 669b 44bd
00000330: bcda c9bc 9eb5 683b 372c 2e3d d972 553c
00000340: b39c 1dbd 91db bebc e5cc f538 9276 013d
00000350: eaf4 b83c a62f dd3c eecc 113d 272f fbbc
00000360: f860 653c 8fb8 f4bc 1361 d13c 8ee3 423d
00000370: fc20 52bc 1740 3cbd c196 4abc 3df3 f5bc
00000380: d2c6 8cbc 2b5c 19be 22e0 79be c662 d43d
00000390: 8de5 3c3e 05ef b33d 0fe6 a33d 8c49 99bc
000003a0: ca50 023e 3b58 2c3e 09b8 b73d 9638 fc3d
000003b0: 6e10 283e b39c 363d 3248 333e 56dd b33d
000003c0: cbf2 ce3d 506f 383e 11fc 563d cb86 ec3d
000003d0: 5363 903d fc09 c1bd f807 e33d 2931 513e
000003e0: 7dc3 89bc 0ead f7bd 7b9a 8b3d 5d26 963d
000003f0: 55d4 ebbd 4bd2 6abc e92d 9d3e 8f1d 543e
0.08227603 0.18610382 0.16523631 0.102423005 0.15604536 0.080439344 0.1215841 0.06454604
0.21589851 0.2569872 0.0645995 -0.09485891 -0.02056718 -0.059365712 0.14175166 0.010029963
-0.0010853708 0.15052769 0.009459934 0.08672795 -0.04211305 -0.06633114 0.025284145 -0.15410356
-0.10929314 -0.070691995 -0.11319303 -0.10732747 0.00014722013 0.061380908 0.015141482 0.186261
0.22688659 0.08406732 -0.02289 0.14649287 0.13322176 0.1463255 0.082330145 -0.13921244
-0.2839549 -0.022686515 0.017082509 0.10380774 0.030972239 -0.19241714 0.122495785 0.04392673
0.17633888 0.035358127 -0.032654118 -0.12914903 -0.35265514 -0.35128495 -0.21460319 -0.33284095
-0.27434802 -0.13440958 -0.2473257 -0.1623034 -0.1881771 -0.09617623 -0.33417442 -0.44533017
-0.2391273 -0.10597468 -0.09956683 -0.07717598 -0.16195841 -0.033193424 -0.11587091 0.0352775
0.033391286 0.02562906 -0.057821453 0.31057826 0.147707 0.09219788 0.14177838 0.26621744
-0.023105435 -0.021582369 0.0604404 0.10337353 0.011944102 -0.08920246 -0.10495391 -0.09868952
-0.010203428 0.09227327 -0.09842863 -0.108727045 -0.025727255 -0.0061467444 0.029572327 -0.025935624
-0.01376263 0.12779388 0.09018013 0.02990061 0.1659308 0.0988632 0.023642795 0.23552254
-0.012642883 0.1397659 0.27325362 0.1379987 0.085362904 0.07394607 -0.019478062 0.12502325
-0.05544169 0.09405298 -0.0057953424 -0.043942917 -0.066586345 0.005100092 -0.006780957 -0.1620596
0.019690683 -0.011092364 -0.031523507 0.029751867 -0.018307991 0.08150607 0.085132815 0.15283963
-0.007858201 0.2190446 0.023038834 -0.05785639 0.02352932 -0.04094797 0.0785443 -0.13847989
0.061771747 -0.073987424 -0.19328648 -0.1877933 -0.096020505 0.2667275 0.09234237 -0.04216922
-0.083397254 -0.16496608 0.1217535 0.1651974 0.12186762 -0.112229235 0.009369545 0.034440268
0.15269388 0.01320142 -0.024666494 -0.047361616 -0.1049321 -0.07662025 0.06790617 0.06929393
-0.04342513 -0.014649067 -0.0068197967 0.014309953 0.021031909 0.08677567 0.16674276 0.0767419
-0.119193286 -0.12975931 0.073954776 0.095410876 0.07356333 -0.10106501 -0.01555072 0.2239805
0.17134778 0.13826637 -0.0059669283 0.10161321 -0.09632494 0.07302126 0.0071419096 -0.01930784
0.037261344 0.025968201 -0.08944973 -0.06289725 -0.04269545 0.0029359034 -0.029187014 -0.01036589
-0.107664816 0.051115986 0.033975348 -0.06340624 -0.04578081 -0.02906681 0.016731542 0.014451336
0.019430429 0.0021622102 0.03330976 -0.047999762 -0.024640433 0.0035508643 0.042522635 0.01302787
-0.03847952 -0.023298057 0.00011720675 0.031607218 0.022577722 0.02700026 0.035595827 -0.030662132
0.01400017 -0.02987316 0.025558984 0.047580294 -0.012825247 -0.04595956 -0.012365044 -0.030023212
-0.017184649 -0.14976566 -0.24401906 0.10370402 0.18446942 0.08785824 0.080028646 -0.018711828
0.12726131 0.16830532 0.08970649 0.123154804 0.16412517 0.044583034 0.17508009 0.08782451
0.10104903 0.18011212 0.052486483 0.11549147 0.070501946 -0.094257325 0.11085504 0.2042891
-0.016816849 -0.120935544 0.06816574 0.07331536 -0.115151085 -0.014332364 0.3069909 0.207144

fc1.bias f4 [120]
00000000: 5566 a9bc 4c3b 2ebe b821 5c3e 12b9 c53e
00000010: a120 2bbd 5a54 c33e fef8 313d 9db0 03bc
00000020: 3fcd 53ba b0d1 a9bc b022 243d 6495 2fbd
00000030: e17c b5bd 91f4 c13d 4346 64bd d05e edbc
00000040: c4be 18bd cd5b 18bd 5532 a7bd dfbf 24bd
00000050: 9e11 48be c2ad af3c b109 e73d e2b1 9bbd
00000060: 4516 01be 367c 34bd 79fc 08bd cd15 4cbd
00000070: 931e 733e 73f8 0c3c dfde 3d3c f537 7ebd
00000080: 23d7 c43c e499 a33b c5c4 00be 6ff5 e9bc
00000090: 6b91 06bd b039 c0bc ea4a eb3e b7ea 92bc
000000a0: 2c98 063f 4495 a93d 4e96 243c e513 0abd
000000b0: 10e1 cf3c 7b87 a63e d103 e73b e6bc f1bc
000000c0: a18e 76bd 5557 453e 8195 6fbb 9c20 d53e
000000d0: d6c5 38bd b796 d6bb 9f0f a6bc 7e4d 153e
000000e0: 4956 6cbd d71d 92bb 6c0f da3b 4511 193d
000000f0: 4db4 d8bc 3df8 b33e a541 78be cc1e 0f3c
00000100: b879 403e 75ee 343e 16ea a8bc da3a 633d
00000110: a472 6e3d ed8d ca3e 7a5a 4ebd 3158 6e3e
00000120: 4bda 6a3e c68c 0d3e 7419 37be 112a 0cbd
00000130: cd48 efbc 8bf2 1e3e 911f 7c3e 9db4 393e
00000140: 8dcc 903e 4022 a63d 5150 adb8 dacd 9fbc
00000150: 27cf f1bc 079e 3b3c c0a0 bcbd d64e 133e
00000160: b723 5abe d68e 9c3e 5ef3 a73e 6aa4 d6bc
00000170: f595 ce3d 7fa6 82bd 1375 9b3e fcb6 51be
00000180: 4261 81be 0abb df3c 1e57 523e fcf3 a43e
00000190: 9823 55bd a951 15bd 0178 57bd 8be1 ccbd
000001a0: bba3 d53c 00ed 77bd 4ea9 cfbd 09c3 86be
000001b0: 538d a1bc 839f a8bd 5810 e83e 60f9 b8bd
000001c0: 80a7 92bd 6aea d53d 6fb5 07bd 1f1d 08bd
000001d0: c8b5 78bd f6fc 543e 3bcb b1bd 863c 7d3d
-0.020678679 -0.17014807 0.21497238 0.3861776 -0.041779164 0.38150293 0.043450348 -0.008037713
-0.0008079595 -0.02072987 0.040072143 -0.04286708 -0.088617094 0.094704755 -0.05573107 -0.028975874
-0.037291303 -0.037196923 -0.08163897 -0.040222045 -0.1953797 0.021445159 0.11281145 -0.07602288
-0.12606151 -0.04406377 -0.0334439 -0.04982548 0.23742132 0.008604157 0.011588781 -0.062065084
0.024028366 0.0049927104 -0.12575062 -0.028559415 -0.032853525 -0.023465008 0.45955592 -0.017934186
0.52575946 0.08280423 0.010045601 -0.03371038 0.025375873 0.32525238 0.0070500155 -0.02950902
-0.060194615 0.19271596 -0.0036557617 0.4162644 -0.045110546 -0.0065487283 -0.02027112 0.14580342
-0.057699475 -0.0044591236 0.0066546705 0.037369985 -0.026453162 0.35150328 -0.24243791 0.00873537
0.18796432 0.17669089 -0.020619433 0.055476047 0.0582148 0.39561406 -0.050379254 0.2327583
0.22934835 0.13823232 -0.17880803 -0.034219805 -0.029209519 0.1552221 0.24621417 0.18135305
0.2828106 0.081120014 -8.264243e-05 -0.019507337 -0.029517723 0.011451251 -0.09210348 0.14385542
-0.21302687 0.30577725 0.32802862 -0.026201446 0.10087196 -0.06379413 0.30362758 -0.20479959
-0.25269514 0.027310867 0.20541045 0.32217395 -0.052035898 -0.03645483 -0.05260468 -0.100039564
0.02607905 -0.060528755 -0.10139714 -0.26320675 -0.019720709 -0.082335494 0.4532497 -0.090319395
-0.07160854 0.104451016 -0.033132013 -0.033230897 -0.060720235 0.20799622 -0.08681341 0.061825298

fc2.weight f4 [84, 120]
00000000: 3b95 1bbe b865 0dbd b1b5 4fbd 7c3a 8b3e
00000010: 5c19 35be 82b7 e03d 4725 053e 96ea 4bbc
00000020: 5ef0 a7bd 2cb5 5d3d 5135 7b3c b267 b83d
00000030: 78f1 0bbe 2c77 cb39 57e3 5d3d 9869 b13d
00000040: 4782 f13c 049a 51bd e5db 08be fe5b 55bd
00000050: 2385 f13c 4dd3 c53b 990d 143e e158 a4bd
00000060: 5d5d ccbe 290d 4abd 2a97 b0bd 3898 5f3d
00000070: 607e 59be 0b9d a43c 32ac ecbd a80f d23d
00000080: 8b24 8bbd 7c34 1d3c 3a47 883d 7a4d a8bd
00000090: 626e 543d 0b93 803d 8d1e 273e 80b9 46bd
000000a0: d709 213e e353 d33c 64ff 53bd dc34 8a3d
000000b0: 0561 d73d 62a9 ce3c d671 1dbd db28 38bd
000000c0: 8c87 0e3d b3cc db3d 6de6 8fbc e7a1 ac3e
000000d0: 2dd4 01be f6a5 aabd 7d8a 23bd 12fc f63d
000000e0: 2b06 c03d 9e24 9b3d 2e5d 8c3d 55d9 7c3d
000000f0: 9339 11bd b4ea d63c 1991 3ebe 5d19 51bc
00000100: da17 953e e8d7 9bbe 6524 d33d 7596 2cbe
00000110: 8c3c 5abd 3839 453d 9d63 2e3b e873 9abc
00000120: afc5 f63d b0b7 a9bd 24e2 67bd b38c b9bc
00000130: eb0d 173e 00a8 b03d acb1 383e 6474 8c3d
00000140: 384e 9d3d ee99 173e 7c76 e6b8 1403 e5bd
00000150: b42b 8c3d 710d 98bd 3746 813d 79dc 143e
00000160: 519b 71be 38e2 143e ae1e 823e 5b02 2e3d
00000170: 56d1 59bc fee7 ce3d 42d8 933e 6114 0cbb
00000180: 82be 9cbe a2ef 94bd 2c16 b93d 4ff0 a13d
00000190: 0582 523d a573 1dbe 6af7 65bd 3ddc 9cbd
000001a0: 6f77 d83d 6ead b43d 006c 54be 28c3 9abc
000001b0: b3c6 7c3c ffd3 bebc a56a d03e ea31 573d
000001c0: 9bd7 833d d0f4 05bd 400c b13c 18e3 83bd
000001d0: 3138 70be c849 713e 23fc 3abc 3b11 e4bb
000001e0: 5213 61bd 7c34 b23c 335a a83d b594 15bd
000001f0: 8236 e1bd 47d9 21bd 66fd 8ebd 4cb7 903d
00000200: 706e a83c 8f9e 1d3c c009 30bc 8077 8e3c
00000210: 4f22 73bd 8962 8cbd 5634 8e3d 6862 f33c
00000220: 00f8 773d ab63 c4bd a968 ebbc dcb6 f7bd
00000230: a6bd 17be 2a73 84bd 3b58 38bd d04a e53b
00000240: 7915 19bd 00cc 773b e924 3abd c4e0 a8bc
00000250: 59f5 abbd 3adf 9ebb 1c9f 26bd 68cb 563c
00000260: 26cd 43bd 5fca 33bc e463 11bd 8011 4abb
00000270: fc31 babc e02f 91bb 65c7 e53c 48bb d23c
00000280: deb2 443d c05c be3c 289f aa3d 0012 eb3b
00000290: 583e 353d 38cd 06bd bd6e ed3c d829 203d
000002a0: 86f5 853d 6bcc 7cbd 3475 cdbc 58bb 153d
000002b0: b949 97bd 9fcf cabd 7c97 b9bc b13e 723d
000002c0: 9982 5ebd 97ec 27bd 1368 603d d3a6 b6bd
000002d0: cabf 9d3d f608 dbbd ad91 c9bd d8d8 473d
000002e0: b861 17bd 6260 ba3d e126 c8bd eb96 89bd
000002f0: 316e af3b 2513 75bc 4dfb 25bd 8b7f 46bd
00000300: 873a 89bd 597e a93d 1b3e 11be 94d3 21bd
00000310: 9e85 903b 8f31 f6bb 1f11 943d fcd5 2a3d
00000320: a4d9 babc f766 703d e858 6c3d 186f 2d3d
00000330: 688b 913d 54db 3b3d 6996 0a3d b6da 22bb
00000340: 73c4 09bd 5742 493d 02b7 3dbc 688b 323c
00000350: 42f3 cd3c 22f9 5e3d 96c1 adbd dc6f 02be
00000360: 5105 a23c 9dad fcbd afb1 3bbd 1617 0cbe
00000370: f0c6 1d3c 8887 b4bd bac9 a9bd f25e c83c
00000380: 1f2b 63bd 40ae e23c 3869 8bbd 8acf b2bc
00000390: 99e3 923d 9ae7 eabc cb4d a7bd 8d74 adbd
000003a0: d762 ebbc 68c1 b0bd 5869 893c 8c11 8bbd
000003b0: 9539 0fbd 46ed bcbd 9b40 3dbd ce48 a239
000003c0: 93c3 8138 67ae 4d3d 6b85 853c aef9 28be
000003d0: 5474 403e c8d3 7cbd f3a9 a93d a062 dd3c
000003e0: 2ba8 adbd c9fc 513d 20d5 5b3d c100 14bc
000003f0: a26d d4bb 5f45 a73d 1a40 613b 5cb0 bdbc
-0.15193646 -0.034520835 -0.050710384 0.27193058 -0.17685455 0.10972501 0.13002501 -0.012446066
-0.08200143 0.054127857 0.015332536 0.09004153 -0.13666332 0.00038807967 0.054171886 0.086627185
0.029481066 -0.05117227 -0.13365133 -0.052089684 0.02948243 0.006037152 0.14458312 -0.08024765
-0.3991498 -0.049328957 -0.08622582 0.054588526 -0.21239614 0.020094415 -0.11556281 0.102568924
-0.067940794 0.009595033 0.066542104 -0.082179025 0.05186308 0.06278046 0.16320248 -0.04851675
0.1572641 0.025796836 -0.05175723 0.067483634 0.10516552 0.025227252 -0.03843864 -0.044960838
0.034797236 0.10732403 -0.01756593 0.33717272 -0.12678595 -0.08332436 -0.039926995 0.12059797
0.093761764 0.075753435 0.0685371 0.0617307 -0.035455298 0.026234962 -0.18610038 -0.012762395
0.2911976 -0.3043816 0.10309676 -0.1685427 -0.0532804 0.04815027 0.0026609667 -0.018854097
0.12049424 -0.08286989 -0.05661215 -0.022650098 0.14751403 0.086257935 0.18036526 0.06858137
0.07680935 0.14804813 -0.00010989324 -0.11182228 0.06844273 -0.07424439 0.063122205 0.14537229
-0.23594405 0.1453942 0.25414032 0.042482715 -0.0132945385 0.10102843 0.2887593 -0.0021374451
-0.30614096 -0.07272269 0.09037432 0.07907163 0.051393528 -0.15376146 -0.056144156 -0.076591946
0.10569655 0.088221416 -0.20744324 -0.018891886 0.015428233 -0.023294447 0.40706363 0.052537836
0.06437608 -0.032704175 0.021612287 -0.06439799 -0.23458935 0.23563302 -0.011412653 -0.006960062
-0.054950066 0.021753542 0.08220329 -0.03651877 -0.10996725 -0.039513852 -0.06981926 0.07066211
0.020560473 0.009620323 -0.010744512 0.017390966 -0.05935889 -0.068547316 0.06943576 0.02971001
0.060539246 -0.09589323 -0.02873643 -0.120954245 -0.14818439 -0.06467278 -0.045006018 0.0069974437
-0.037373994 0.0037810802 -0.045445357 -0.02061499 -0.08396406 -0.004848388 -0.040679082 0.013110019
-0.047803067 -0.010973542 -0.035495654 -0.0030833185 -0.022728913 -0.004430756 0.02804918 0.025724068
0.048022144 0.023237586 0.08331138 0.0071737766 0.04424891 -0.032910556 0.028983468 0.039102405
0.065409705 -0.061718386 -0.0250803 0.036555618 -0.07387108 -0.09902882 -0.022655241 0.05914182
-0.054323766 -0.040997114 0.054786753 -0.08918538 0.077025965 -0.106950685 -0.098422386 0.048790783
-0.036958426 0.09100415 -0.097730406 -0.067182384 0.005353712 -0.014958178 -0.040522862 -0.04846148
-0.06700616 0.08276052 -0.14183848 -0.039508417 0.0044104597 -0.007513232 0.07229828 0.041707978
-0.022808857 0.058691945 0.057701975 0.042342275 0.07106668 0.045863464 0.03383485 -0.00248496
-0.033634614 0.049135532 -0.011579277 0.010897495 0.025140408 0.05443681 -0.08484189 -0.12737983
0.019777926 -0.123378016 -0.04582375 -0.13680682 0.00962995 -0.08814913 -0.082904294 0.024459336
-0.055461045 0.02767098 -0.06807178 -0.021827478 0.07172317 -0.02867489 -0.08169135 -0.08469496
-0.028733654 -0.08630639 0.016773865 -0.06790456 -0.034967024 -0.09224944 -0.04620419 0.00030953292
6.187628e-05 0.05021515 0.01629897 -0.16501495 0.18794376 -0.061725408 0.08284368 0.027024567
-0.08479341 0.051266465 0.05367005 -0.009033383 -0.006482796 0.08167528 0.0034370483 -0.023155384

fc2.bias f4 [84]
00000000: 0940 c73e 4769 20be 6f2c 83bd 1829 fd3b
00000010: 6c13 d63d e2ac 9cbd 885f 1abe 4818 2abd
00000020: c73d 89bd 6aa5 04be afa2 4a3a dbdc 7c3e
00000030: 69bf 04be df21 813d b27f df3e 831e ff3d
00000040: 3d0f 303e dd25 6a3e c44a 673d 56a7 bbbd
00000050: 98b9 013e 61ea e8bd 3e37 5a3d b70b 57be
00000060: 5d0e 0fbc df20 9f3e 39e2 013b 8d31 b53e
00000070: 36ce 0a3e e06e 2e3e c9cf 613e c038 133e
00000080: 4258 10bd aac4 87bc afd4 7ebd 8d56 aebd
00000090: 5373 65be 7d0c b2bc 734e 8b3e 32d6 5d3e
000000a0: 40d6 673e d9b0 a33e a5c9 19be 90a4 273d
000000b0: 5d9c 09bd a80d 63bd 3f86 353e 27e8 1b3e
000000c0: 634e 273e 23d5 85bd 9ad5 923e f0b4 943e
000000d0: 687f c5bb 885f 863e a3f4 a73e 38ae c2bd
000000e0: adce ae3e d820 523e be86 883e 87f1 5b3d
000000f0: 26f8 0f3e a725 ec3e d296 123d b76c afbe
00000100: 21d6 0ebd 90f7 26be a369 903e 0729 c8bd
00000110: ae38 e6bd f619 8cbd d336 eabd 72a7 81be
00000120: 623e d33d 411c 703e be42 303e c347 0ebe
00000130: 9a3b b83d 03b3 2abd 4380 02be 288b 24be
00000140: 5509 b1bd e88e 203e 4869 303e 025a 363e
0.38916042 -0.1566516 -0.064049594 0.007725846 0.10452923 -0.07650162 -0.15075505 -0.041527063
-0.06701236 -0.12953725 0.000772993 0.24693625 -0.12963642 0.063052885 0.4365211 0.124569915
0.17193313 0.22866006 0.056467786 -0.09162776 0.12668455 -0.11372829 0.05327534 -0.21000563
-0.008731452 0.31079766 0.0019818677 0.35389367 0.13555226 0.17034483 0.2205192 0.14377117
-0.03524042 -0.016573269 -0.06221455 -0.08512602 -0.22407274 -0.02173447 0.2720829 0.2166374
0.22640324 0.31970862 -0.15018328 0.040928423 -0.033596385 -0.055432945 0.17726992 0.15225278
0.16338496 -0.06534793 0.2867859 0.29044294 -0.006027151 0.2624476 0.3280383 -0.09505886
0.34142056 0.20520341 0.266653 0.053697135 0.14059505 0.46122476 0.035788365 -0.3426263
-0.034872178 -0.16305375 0.28205594 -0.0977345 -0.112412795 -0.06840889 -0.11436238 -0.25323063
0.10314633 0.23448278 0.1721296 -0.13894562 0.08995743 -0.041674625 -0.1274424 -0.16068709
-0.08644358 0.15679514 0.17227662 0.17807773

fc3.weight f4 [10, 84]
00000000: 95ff e7be 1d1d e8bd d738 b2bd 7b4b 2b3d
00000010: 576c a13d a57c ec38 8428 873e 2652 2c3e
00000020: 1b5a a63d ffe6 1ebc 8511 a9be d7dd fd3d
00000030: 132d 033e 82a4 c23e 6ba6 47bc 6ba4 37be
00000040: 1923 8cbe 7d3f 1d3e c764 103d 72ca aabb
00000050: b512 a93d e6cd 593e c30a e93d deb6 9a3e
00000060: 29af abbe f21e 5cbe 1941 1c3d 4691 78be
00000070: 1ffa 303e f0da 80be 35ac 07bf 225a 72be
00000080: cccb 9c3e a457 eb3c f3b6 50be 598e 1ebe
00000090: 7222 d73e ef06 4abc 38f8 7cbd 3095 b13c
000000a0: 2887 98be d411 a5be 8a31 943e 73bd f4bd
000000b0: 8b65 37be c1bf 073d 3633 44be 73c6 113c
000000c0: 2293 bc3d c863 a7bd aa3c 4d3c 84be fe3d
000000d0: ca92 f7bc e2dd 133e 4e85 4a3e c874 0b3c
000000e0: 8cb3 16bd a498 353d 7560 64bd 4781 c03e
000000f0: 2834 45be 574b 7ebe 05b2 163d 191f ff3d
00000100: 3c35 533c 1407 de3d 03d2 ae3d f978 c63d
00000110: 520b 4a3c ab25 07be 9c34 0cbd 60a8 2c3e
00000120: 839f 83be c1ec b0be 68d0 0ebe eccf afbd
00000130: e7d7 ddbd c81f e6bc b7b0 87bc 427b dbbd
00000140: 0830 123e fee5 ab3c 74fc 713e 99e9 f9bd
00000150: a27a 3fbe 3293 663d 14c8 f23d f8ac ec3b
00000160: 83bd 543e d01f 213e 11d3 87be 5cc4 273e
00000170: 8548 2a3e 4878 50bd 5fe4 39bd ab79 f33d
00000180: 5f35 383a 13e8 583d 811c b1be cc4d a83d
00000190: 4775 333e 84fe cf3d 8e60 97bd d81c 9cbe
000001a0: 0884 103e 2047 f8be 1b20 613d 8ce6 bebe
000001b0: 0ad3 d6bd 05d7 1e3e a9e8 413e 8593 8bbd
000001c0: 931c e8bd 2ea6 013e c2b7 d6bd e8f3 5b3d
000001d0: fded 263e 5acd e33d 8af8 543e 598e cabd
000001e0: 58f6 22be f373 30be 90a9 8dbe 6781 863d
000001f0: 1c2b dbbd 452c 803d ab60 093e 2b10 81be
00000200: 7e69 7ebd 34ea 90be a32f a33d bcd9 ae3d
00000210: 6b9b c8be 3aee 67be d9e8 f53d 66cc 09be
00000220: 8a92 bb3d 0b10 75bd 8b36 f0be a6b7 383e
00000230: cbcb 6b3d 785c 88be 5900 25be 3dc6 9a3e
00000240: e067 78be 5123 18bf baeb cabd 93cf 303e
00000250: 1224 ee3d ebd2 003e 95f6 9fbe 213e 96be
00000260: b666 cf3d 592a 86bd 0672 ebbd de8b 0e3e
00000270: f94a 86be 66e5 9dbe 7c5f 063e 3613 173b
00000280: f50f f9bd 237f 3dbd 6d84 efbd 4ae7 cabb
00000290: 5e4a c73d c4f5 93be 56fa 36be cb53 fa3d
000002a0: 69c8 fd3d 15aa e0bc 245b de3d 634c ccbd
000002b0: bc2e 4fbe 54cb c03d 259e fcbc 7fa4 c8be
000002c0: 3c4c a8be 9252 b93b f3bc 443d 68b2 2d3e
000002d0: 0fcd b93e a34e 17be e1b0 b83c b4ff 7cbd
000002e0: dd37 dfbd 866f 04be 40d6 8e3d 1bcb 323e
000002f0: d1ef 8bbe 93b1 05be 0b1c cdbe d7ba 87be
00000300: 62a6 183e 33d6 ef3e cf90 533d d340 c13d
00000310: f0db 0a3d c144 d03e ffc1 61be 4b16 4abe
00000320: 0bc9 1fbe d419 a03c 2a16 39bb d0f8 2fbd
00000330: b36e 313e 442a 0bbd 7b6b ec3d 4e50 46be
00000340: 12fc 0bbd 672c 7cbd f6f2 513e ac20 4abe
00000350: 9cce 403e fe95 173e 9134 fcbd 4ba5 9bbe
00000360: ea53 953d 5262 943d 0c01 5ebe 69af aa3c
00000370: b5ff 2cbc f44e 20bd 668c 453e aed7 1cbe
00000380: 4434 973e d48d eabd 59ac 783e 92fd fc3a
00000390: 2f1b 57bd 07f2 26bd b817 793d fd62 23be
000003a0: c339 c6be 90cf f6bb 03e4 c33d 0b3d 143e
000003b0: ece1 2bbe 83e1 133d 8c05 7fbd a543 d03d
000003c0: c420 243d 09b0 213e e2d0 cabc 22a7 55be
000003d0: 657c f63d 0c36 193d 60c3 fa3c 0ff3 c3bd
000003e0: d84d 873d e44b 1ebe 9238 2dbc adec 023e
000003f0: 91b7 df3d f7ca 013e 9719 1cbd 53ab 67be
-0.4531218 -0.11333678 -0.087022476 0.04182003 0.07881992 0.00011276574 0.26398098 0.16828212
0.08122655 -0.009698628 -0.3302118 0.12395828 0.12810163 0.38016135 -0.012185673 -0.17933814
-0.27370527 0.1535625 0.03525236 -0.0052121216 0.08255521 0.2126995 0.11379006 0.30217642
-0.33532074 -0.2149618 0.03814802 -0.24274167 0.17282914 -0.25167036 -0.5299714 -0.23667195
0.30624235 0.028728314 -0.2038229 -0.15483989 0.42018467 -0.012330755 -0.061760157 0.021677583
-0.29790616 -0.32240164 0.28944045 -0.11950197 -0.1790983 0.033141855 -0.1916016 0.008897412
0.09207751 -0.08173329 0.0125266705 0.12438682 -0.030221362 0.1444011 0.19777414 0.00851173
-0.036792323 0.044335023 -0.05575605 0.3759863 -0.19258177 -0.24833427 0.036790866 0.12457103
0.01289111 0.10841194 0.0853615 0.096910425 0.012331801 -0.13197963 -0.03422986 0.16861105
-0.25707635 -0.3455563 -0.13946688 -0.0858458 -0.10832196 -0.028091326 -0.016563756 -0.10716869
0.14276135 0.020983692 0.2363146 -0.12202758 -0.18699124 0.05629272 0.11854568 0.007222768
0.20775418 0.15734792 -0.26528218 0.16383499 0.16629227 -0.05089596 -0.045383807 0.11888441
0.0007026996 0.0529557 -0.3459206 0.082179636 0.17525207 0.10155967 -0.07391463 -0.30490756
0.14112866 -0.48491764 0.05496226 -0.37285268 -0.10489471 0.15511711 0.18936409 -0.068152465
-0.11333575 0.12661049 -0.10484268 0.053699404 0.16301723 0.11123152 0.20797935 -0.09890432
-0.15914285 -0.17231731 -0.27668428 0.0656765 -0.10701582 0.06258444 0.13415782 -0.25207648
-0.062112324 -0.28303683 0.0796807 0.08537623 -0.39181075 -0.2264947 0.12007303 -0.13456878
0.091588095 -0.059829753 -0.46916613 0.18038806 0.0575674 -0.26633048 -0.16113414 0.3022937
-0.24258375 -0.5942889 -0.099082425 0.17266683 0.116279736 0.12580459 -0.31242815 -0.29344276
0.101270124 -0.06551046 -0.114963576 0.13920543 -0.26229075 -0.3083908 0.13122362 0.0023052222
-0.12161247 -0.046263825 -0.1169518 -0.0061921226 0.09730981 -0.28898442 -0.17868933 0.122230135
0.12391741 -0.027424851 0.108572274 -0.09975507 -0.20232671 0.09413782 -0.030837128 -0.39188
-0.32870662 0.005655595 0.04803176 0.16962588 0.3628926 -0.14776091 0.02254528 -0.061767295
-0.10899327 -0.12933168 0.06974459 0.17460291 -0.27331403 -0.1305602 -0.40060458 -0.26509735
0.1490722 0.4684311 0.051651772 0.09436192 0.033901155 0.40677455 -0.2204666 -0.19735067
-0.15604036 0.019543566 -0.002824197 -0.042961895 0.17327385 -0.033975855 0.11543938 -0.19366571
-0.03417594 -0.061565783 0.20502838 -0.19739026 0.18828815 0.14803311 -0.12314714 -0.30399546
0.07291396 0.072453156 -0.21680087 0.020835595 -0.010559012 -0.039137796 0.19291839 -0.1531665
0.29532063 -0.11452833 0.24284495 0.0019301644 -0.05251616 -0.04075816 0.060813636 -0.1595573
-0.38715944 -0.0075320676 0.09564974 0.14476411 -0.16785401 0.036103737 -0.06226115 0.10169152
0.04007031 0.15789808 -0.024757806 -0.20864537 0.12035445 0.03740506 0.03061074 -0.09567844
0.066066444 -0.15458637 -0.010572569 0.12785597 0.109236844 0.12675081 -0.038110342 -0.22623949

fc3.bias f4 [10]
00000000: ad87 cebd 07a2 9dbe f1bf 16be f179 a83d
00000010: 023e cd3e 2ed9 81be 189a b23d ebe5 54be
00000020: 51b6 cb3d ea9c 23bb
-0.10084472 -0.3078768 -0.14721657 0.082263835 0.4008637 -0.25361007 0.08720797 -0.20790832
0.099468835 -0.0024965354
