models/fgsm_model.pth (torch, 251179 bytes, 10 tensors)

conv1.weight f4 [6, 3, 5, 5]
00000000: a6e2 f83c 4186 4abd 10fd 333d 5778 063e
00000010: 54fc 19bc 937c 8a3d 77bf 303e 223d 8e3d
00000020: 2db5 4f3c 20ea 09bd 7b1d ec3d da73 9f3d
00000030: 8a1b c93c ab79 2e3c 51ac ad3d 6d71 cdbd
00000040: aed6 edbd c4af 8abd 7262 ebbd 5a12 02bd
00000050: eb10 0ebe 2412 39bd 65eb 5bbe b90e e8bc
00000060: 44c0 08be 3c54 1e3d e12c f93c fd9d 7abd
00000070: b3f0 75bc 88ac 4c3d 46c6 043e 5711 aa39
00000080: cbef 413e 35e1 5fbc 06c8 e83d f3ab a0bd
00000090: 64f8 833d ebe1 abbc 085b cf3d 0ee7 b5bd
000000a0: 8004 e7bd 8a87 0fbe 72ad 3bbd c751 a13d
000000b0: 0a6d 1fbc fcd0 2fbd 62f7 62bc 6697 49be
000000c0: 65d3 d8bc b8c0 dabd ca1e dd3d 4cdd e43d
000000d0: 1d05 a03d f8ac 2f3d f02f 0c3d e325 f93d
000000e0: ba3f f33d 2357 883c dee4 203e 0138 1dbc
000000f0: 662e 473d 1006 793d ad02 34bd 5f2b 72bb
00000100: 1ac9 de3d 2973 ebbd 98a7 cf3c 2e97 c93c
00000110: ab3c d03d ed52 783c 0a09 f7bd 85fe eabc
00000120: 1e46 48be 5648 d3bd b81a 1dbe c2f7 dbba
00000130: 86d7 403d 6050 e539 c324 b13d fb35 5dbd
00000140: 23ec 463e def8 bf3d ad94 ff3d 3e7f 0b3e
00000150: b215 3a3e 76f7 653e a230 163e ed6b f03d
00000160: 6322 e53d 9b88 253e b9e3 fc3d 19b0 853d
00000170: b17b 363e 75d8 273e 1c6f 153e b228 6a3d
00000180: 3ca1 f73d 9bb3 f13d cac9 0a3e c55a 14bc
00000190: fe96 ea3c 6aab e2bd 8362 61bd 72b5 8bbc
000001a0: 5838 223c a9f1 69bd 92e4 fc3b a2d9 70bd
000001b0: 7b92 153d c256 f6bd 8b3b a6bd 9bfa 50bd
000001c0: 335d a53c b916 06be 4af8 0abe daae ffbd
000001d0: 5f83 b7bd 91ba febc 3a2c 7dbd d2ca 36be
000001e0: e718 e73a 7e8f 99bc 9738 84bd b527 18be
000001f0: 92e3 14be a76e 0abd 93d5 a23d 9e4d fbbc
00000200: 7186 84bd 0c97 663d 7061 82bd 0701 19bd
00000210: 744c a1bc bd12 82bd 09c2 debb 11c7 45bd
00000220: e694 ce3c d972 a03c f938 0a3d b580 d7bc
00000230: 3bf9 bf3c 1680 9a3d 2d58 d9bd 884a 33bd
00000240: 0840 1fbd d5a8 5d3d 53b6 76bd f9af 72bd
00000250: df87 003d b0c0 3abd 2ccb 863c 51a5 87bd
00000260: 871f 51bc 38f3 29bd 7253 c13c eda1 24bd
00000270: 3b4c b8bd 1287 4fbd 1b4d f9bc 4f33 3c3c
00000280: ca5b bcbd 474e 88bd 1c64 a8bc 10b8 b7b9
00000290: 2e78 073b 68ad 12be 0f1e a5bd 67a5 e3bd
000002a0: 599c 11be 5e2b 07be cf12 06be 80f5 7a3d
000002b0: 3e03 86bd bb86 5ebb 73ac cebd da11 edbc
000002c0: 4ce6 25bc 34f4 903d f1ad b2bd 9add d5bd
000002d0: f399 843d 0995 9e3d 22cf 793b 5855 ff3c
000002e0: 489a 9c3c 997e 90bd 1beb 7f3c 69fc 07bd
000002f0: 0194 553c 90ed d1bd dbe2 4d3d 1ec7 c0bc
00000300: bd03 833d 2e59 10bb e05f a1bd 6ce8 8d3d
00000310: e321 6cbd 9152 a8bd b3a1 ebbd 3bf3 f83a
00000320: d901 8a3c b412 123e 30b3 bd3b c81f 193e
00000330: fd75 8f3d be24 253e 1fec 253e 1e56 653e
00000340: 3cd4 073e c5c2 c8bb ba6c 8d3d 6c0d 353e
00000350: 2947 3e3d e07b b13d 370c 273d 2e1e 173e
00000360: 530d ed3b 7044 1d3d 3b0a 8e3d 0899 0b3e
00000370: 64bf 863c 9a74 d43d 4c95 3d3e 1140 373e
00000380: 807d dc3d 45d2 173e 77b8 693e dc36 f6bb
00000390: 3aa9 ca3d db49 62bd a85f 873d 30b5 ed3d
000003a0: 5110 07bd def0 6cbd 3219 9f3c 1218 573d
000003b0: e1ea e73a 6552 d8bd f40b 1a3c 5422 4a3d
000003c0: c741 4abe 9221 2dbe 7b45 dbbd 5f46 193e
000003d0: f406 183e 1028 20be 481c 013b 1bfb dd3c
000003e0: 6560 ee3d 512a 653e bab2 ab3d b76f 043e
000003f0: 2c72 b83d 25e8 72bd d635 20bd 8f95 ebbc
0.030381512 -0.04944444 0.04394251 0.13131844 -0.009398539 0.06762042 0.17260538 0.06945254
0.012677473 -0.033670545 0.115290605 0.07785769 0.024549264 0.010649125 0.08480132 -0.100314
-0.116132125 -0.06771806 -0.11493386 -0.031755783 -0.13873641 -0.045183316 -0.21476515 -0.028327333
-0.13354594 0.03865455 0.030416908 -0.061185826 -0.015011 0.049969226 0.1296626 0.00032437846
0.1893913 -0.013664533 0.113662764 -0.07845297 0.06443861 -0.02098175 0.10124785 -0.08881961
-0.11280155 -0.14016548 -0.045819707 0.07876926 -0.009730587 -0.042923912 -0.013852926 -0.1968666
-0.026467988 -0.106812894 0.10796888 0.111750215 0.07813475 0.042889565 0.034225404 0.121654294
0.11877389 0.016643113 0.15712306 -0.009595872 0.048628233 0.060796797 -0.043947864 -0.003695212
0.10878201 -0.114965744 0.02534847 0.02460822 0.101678215 0.01515649 -0.12062271 -0.028685817
-0.19557998 -0.10316531 -0.15342224 -0.0016782212 0.04708054 0.00043738168 0.0864959 -0.054006558
0.19426017 0.093736395 0.124795295 0.13622758 0.18172339 0.2245768 0.1466699 0.11739335
0.11188199 0.16165392 0.12348122 0.065277286 0.17820622 0.16391166 0.14593166 0.057167716
0.120913 0.11801835 0.13553539 -0.009054844 0.028636452 -0.11067851 -0.05502559 -0.017054293
0.009901129 -0.05711523 0.0077176774 -0.0588013 0.036516648 -0.120282665 -0.08116826 -0.051020246
0.020186042 -0.13094606 -0.13571277 -0.12484522 -0.08960604 -0.031094821 -0.061809756 -0.17850807
0.0017631323 -0.01874518 -0.06456106 -0.14858897 -0.14539936 -0.033796933 0.07950892 -0.03067666
-0.06470955 0.056296393 -0.06366241 -0.037354495 -0.019689776 -0.0635123 -0.006798033 -0.048285548
0.025217485 0.019586014 0.03374574 -0.02630649 0.023434272 0.07543962 -0.10612521 -0.04377225
-0.038879424 0.05411609 -0.06023247 -0.05924985 0.031379577 -0.045593917 0.016454302 -0.066233285
-0.012763864 -0.041491717 0.02359936 -0.040193487 -0.08998915 -0.050665922 -0.030432275 0.011486842
-0.09197195 -0.06655555 -0.020555548 -0.00035041617 0.0020670998 -0.14323962 -0.08062374 -0.11115532
-0.14219798 -0.13200137 -0.13093112 0.061269283 -0.06543587 -0.0033954817 -0.10091486 -0.028939176
-0.010125708 0.07077828 -0.08724583 -0.10442658 0.06474676 0.0774327 0.0038117846 0.031168625
0.019116536 -0.070553966 0.015620018 -0.0331997 0.013035775 -0.102503896 0.050265174 -0.023532446
0.063971974 -0.0022025811 -0.07879615 0.069290966 -0.057649504 -0.08218873 -0.11505451 0.0018993387
0.016846584 0.14264947 0.005789183 0.1495353 0.07004926 0.16127297 0.16203354 0.22396132
0.13264555 -0.006126734 0.069055036 0.17680901 0.046454582 0.086662054 0.040783133 0.14757606
0.0072342544 0.038395345 0.06935545 0.13632596 0.016448684 0.103738025 0.18513983 0.17895533
0.10766125 0.14826305 0.22824274 -0.007513864 0.09895559 -0.055246215 0.06610042 0.116068244
-0.032974545 -0.057846896 0.019421194 0.05251319 0.0017693901 -0.105625905 0.009402264 0.049349144
-0.19751655 -0.16907337 -0.10706612 0.1496825 0.14846402 -0.15640283 0.0019700695 0.027097275
0.116394795 0.22379424 0.08383699 0.12933241 0.090061516 -0.05930342 -0.039113842 -0.028757839

conv1.bias f4 [6]
00000000: 9759 6abd b192 2dbe e4a2 01be 9e2f 803d
00000010: e36c c73c f61f 42be
-0.057214346 -0.1695049 -0.12659794 0.06259082 0.024343913 -0.18957505

conv2.weight f4 [16, 6, 5, 5]
00000000: 4414 6d3d 0d9d 8dbd 4993 cebc e32e 2ebd
00000010: 3d77 90bc 8e25 c53d a46c 90bd e69c a6bd
00000020: 5bdd 89bc cc5e a83c 62cc b539 2a95 553d
00000030: c4cb 80bd 7911 14be 820b ffbd a9b9 783b
00000040: 8eba 163e 17e8 8c3e 5f2b 3a3e 0bb7 1fbd
00000050: 1075 11bc 5291 123b 8bf0 3f3d ba9c f13d
00000060: 9f7c 8d3d 8b29 6f3d 38a5 6b3d a0a6 093e
00000070: 7687 1a3e 7911 033e 85ff 25bd bd67 a33c
00000080: 3321 c83d a18c 493c 7473 f13c ae38 08be
00000090: 6cce 2abd a348 8dbc 0c34 4abc ca9d ebbd
000000a0: d87d 30be 26f4 8fbd f0c8 f9bc 37f6 15be
000000b0: ca12 1ebc 7c44 0bbe e675 debd 47ad 58be
000000c0: 39dd 96bd 1c97 dbbd 110d 503d fc5f f83d
000000d0: dd62 c63d b466 233e 4cb8 af3d 52f3 57ba
000000e0: 374d a33d 41b3 df3d 6a84 c23d ca48 ce3c
000000f0: 38d9 d43d 0ddd 3dbd 68b0 3fbd ebc9 8d3c
00000100: b6c5 cebd 6f4e aebc c3f9 21bc 1d89 4a3d
00000110: 9b4a 80bd 348d f8bc 4bd9 a03d 3d7d 46bc
00000120: 0d1d 6c3d 4a7c a4bc 6743 babd a19d bd3d
00000130: 2ec8 ec3c 36bf fa3c b42c 8fbc 27ce a1bd
00000140: 2005 2f3e a9b0 1d3d 1fa9 afbc f092 c13c
00000150: 8ae1 0d3e e52f 673e 67ac 323e 42e1 de3d
00000160: e02e 713d cb24 153e 2a64 c7bd 889d dd3d
00000170: fbe6 d73d ee3c 723d bdc9 9b3d 4f32 5ebd
00000180: 05ea a9bd 68bd 043e 5402 e93d 94e3 3f3e
00000190: 043d 97bc 44ae 853d 8894 cf3d 799a 343b
000001a0: a00e 6cbc 62a8 e73d e602 bd3d f388 323e
000001b0: dc59 5a3b 4d35 a53d 4f01 563e 173d f73d
000001c0: 59fa 143e bac1 d4bd d004 323d 2faa 403e
000001d0: 6419 973e 07e3 ac3e f511 e83d 4958 4b3e
000001e0: 7b71 36be 9dee 7abe 57f5 82be 17ec 1ebe
000001f0: 46b5 e5bd b5bf 89bd 14e0 3e3d 6e35 febc
00000200: 5d8b 06bc a8fb 83bd faad 173d d6f2 1bbc
00000210: c866 debd eed6 eebd c639 d5bd 0ce1 aabd
00000220: 765e 953a dc41 b0bd 2276 84bd ee3d f33a
00000230: c56e 06bc 17e8 d8bd 95b9 a3bb c75b 943b
00000240: d8f6 d7bd 363e 1c3e d9be 88bc c834 9dba
00000250: 688b e73c 3a87 933d 0198 7fbc 5df8 e6bc
00000260: 22e4 dfbd da4f e73d 3c76 383e 4429 b9bd
00000270: 67b4 44bd 5eaa 53bd 3bfb 9b3d 0ce9 853d
00000280: 12b0 52be 18e0 afbd 978d ec3d e8e5 b03d
00000290: 01e8 1dbe c7ed d03d 34f9 113e ab8f 643c
000002a0: a6b8 f3bd 67e6 d3bd 4e21 d33d 23d2 03bd
000002b0: a312 883b 0c7b 5b3d bc4b 93bd ab41 cdbc
000002c0: e20b 7ebd b0e1 2bbd a6d1 01bb c2d0 a4bd
000002d0: 14be a83c b94f e63d 2749 953c ac49 41bd
000002e0: 026c 03be 4851 0a3e 65d3 ce3d cca7 753a
000002f0: 435f 64bd 4d76 2fbe 2d54 513e 68b6 9f3b
00000300: 02e5 07be a166 1fbe 418d 16bd 4604 013e
00000310: 888f 8bbd a0f3 b1bc 74f6 a1bd 676b 39bd
00000320: 33c6 cdbc ab0a 03bc b1dd f13d c4ce b83c
00000330: 537c 8f3d 403f 13bc 36ad c63d b972 4fbc
00000340: 4bbe 4a3d ad2b 87bd cabb 18be 51a5 4c3c
00000350: 50e3 803d 8ff0 023c e947 0ebe 73b9 16be
00000360: 8c20 53bd b09a 7bbd 0cb5 3bbe f712 bebd
00000370: 6ba2 b9bd 2d48 ddbd f4c3 c83c d366 693d
00000380: b077 8e3d 8cfd 043d b46f de3d 2041 263e
00000390: 685e 06be 9ffa 4cbd a543 dc3d 9ccb cd3d
000003a0: 9718 aebd 86d7 133c 7015 b23e 21ae f3bc
000003b0: 209f 88be 30ef 293e c200 f33e 9a98 913e
000003c0: 636e c3bd 2424 073e eda5 9a3e 68ff 513e
000003d0: 2efd f33d 9e8e 363e 9c34 653e 0f57 0b3e
000003e0: 42ce 893d 0ae7 ef3c 9e4b e9bb 0beb 8abd
000003f0: 235a 9dbd ce99 3fbe 584d b9bd 8408 d1bc
0.057880655 -0.06914721 -0.025216715 -0.042525183 -0.017634982 0.096263036 -0.070519716 -0.08135395
-0.016829183 0.020553015 0.00034675287 0.052144207 -0.06288865 -0.1445979 -0.12453367 0.003795246
0.14719602 0.2752082 0.18180607 -0.038992923 -0.0088780075 0.002236445 0.04686026 0.11797471
0.06908535 0.058389228 0.05753061 0.13442469 0.15090737 0.12799634 -0.040526886 0.019946927
0.09771957 0.012301595 0.029473998 -0.13302872 -0.041700765 -0.01724655 -0.0123415105 -0.11504705
-0.17235506 -0.070289895 -0.030491322 -0.14644705 -0.009648034 -0.13600343 -0.10862331 -0.2115985
-0.073664136 -0.10722181 0.05079371 0.121276826 0.096868254 0.15957147 0.08580074 -0.00082378567
0.07973712 0.10922862 0.09497912 0.025181193 0.10392994 -0.04635339 -0.046799093 0.017308196
-0.10096304 -0.021277634 -0.009886208 0.049447168 -0.0626423 -0.030340768 0.07853945 -0.01211482
0.057644892 -0.020078797 -0.09094887 0.09258581 0.028904047 0.030608755 -0.01747737 -0.079006486
0.17091799 0.038498554 -0.021442948 0.023629636 0.13855568 0.22576864 0.17448579 0.10882808
0.058882594 0.14564817 -0.09735902 0.10821062 0.10542103 0.05914014 0.07606838 -0.054247197
-0.08296589 0.12962878 0.11377397 0.18739158 -0.018461712 0.06527379 0.10135752 0.0027557893
-0.014407784 0.11311413 0.092290685 0.17435054 0.003331772 0.08066807 0.20898937 0.12072199
0.14548625 -0.10388513 0.04346162 0.1881492 0.2951156 0.33766958 0.1133155 0.19857897
-0.17816727 -0.24505086 -0.25577804 -0.15519749 -0.11216216 -0.06726018 0.046600416 -0.031031337
-0.008211938 -0.06444484 0.03703115 -0.009518346 -0.10859448 -0.11662088 -0.1041141 -0.083437055
0.0011395949 -0.08606312 -0.064678445 0.0018557885 -0.00820512 -0.105911426 -0.0049964883 0.0045275423
-0.105451286 0.15258107 -0.016692566 -0.001199388 0.028264716 0.07203527 -0.015600205 -0.0281946
-0.10932185 0.11294527 0.18013853 -0.09041074 -0.048023608 -0.051676147 0.07616278 0.06538591
-0.20574978 -0.08587664 0.115504436 0.08637601 -0.15420534 0.102016024 0.1425522 0.013950269
-0.11900453 -0.1034668 0.10309087 -0.032182824 0.0041526123 0.053584144 -0.071921796 -0.025055727
-0.06202305 -0.04196328 -0.0019808798 -0.0804763 0.020598449 0.11245675 0.018223358 -0.0471894
-0.1283417 0.13507569 0.10098914 0.0009371012 -0.05575491 -0.17134972 0.20442267 0.0048740394
-0.13270953 -0.15566494 -0.036755804 0.12599286 -0.06814486 -0.021722615 -0.07908335 -0.045268442
-0.025118923 -0.007998149 0.118098624 0.022559531 0.07006135 -0.008987248 0.09701006 -0.012661629
0.049497884 -0.06600127 -0.14915386 0.012490586 0.062933564 0.007991924 -0.13894619 -0.14719181
-0.05154471 -0.06142682 -0.18330783 -0.09280961 -0.09064182 -0.10804782 0.0245075 0.056982826
0.06956422 0.032468364 0.108611494 0.1623578 -0.1312195 -0.0500437 0.1075509 0.10048601
-0.08500784 0.009023553 0.3478198 -0.029746117 -0.26683903 0.16595149 0.47461516 0.28436738
-0.09542539 0.1319738 0.30204716 0.20507586 0.119135246 0.17827842 0.2238335 0.13607429
0.06728794 0.029284973 -0.00711961 -0.06783112 -0.07683208 -0.18711016 -0.09047955 -0.025516756

conv2.bias f4 [16]
00000000: c719 b9bd 3945 b0bc fb28 9b3d 6243 b23e
00000010: e151 12be 874a ca3c a67e 8dbd d0b1 a1bd
00000020: f888 d03e 2e70 06bc bd8e 553e d326 bfbc
00000030: 13fa 2ebe b235 9a3d b77c a4be 1d1b 923d
-0.0903812 -0.021517383 0.07576176 0.34817034 -0.14289047 0.02469374 -0.06908922 -0.07895243
0.407295 -0.008205457 0.20855232 -0.023333943 -0.17087583 0.07529773 -0.321264 0.07134078

fc1.weight f4 [120, 400]
00000000: ab38 793b 5ded c0bc 85bc 8e3b 7aab 8abd
00000010: f9f1 c8bd 428b 41bc 20c7 6abd 08b9 8e3c
00000020: ede8 913d 4f81 80bc 4ec4 443d fbbf 903d
00000030: b712 203e 052a 043e cd79 5dbc 1844 993d
00000040: 0a28 a53c 0d20 ce3d a38a 2d3e 52b7 ab3d
00000050: 7072 983d 24e8 f83d 28d5 e93c c686 fbbc
00000060: f5ad 8d3d 73c2 d53d 52a1 dbbc bf83 453d
00000070: 2335 45bd 075b 99bc 9e61 033d 803c 66be
00000080: 2da0 0dbd 57ad 9a3b 78ae 453c e4cf 77bd
00000090: 38fc 56bd 7fc1 38bc 5c4c 5bbc 45e8 8ebd
000000a0: 0227 87bd eef4 eabb 08aa fd3d f20e bcbd
000000b0: 1127 2abd d66f b13c 1ff9 283e edc2 4e3e
000000c0: c71d 0e3e dc3c 6d3e 40af 99bd 1d61 91bc
000000d0: 0d01 8e3d becc 553d e98b c6bc cfbd 403c
000000e0: d06d 0b3e e29b 1c3e 19c2 cd3d ed3e 473d
000000f0: 98b0 a33d b0db f33d b76a a93d 78bb 063e
00000100: 2ea8 1f3e a35e 2d3e 07dc 363d a0de 193d
00000110: 09ac f43a c45b 0f3e 56cd 913d a9cb 133d
00000120: dc1b d13a e463 95bd a50a b63d ab43 1c3e
00000130: ccdd 1abe e89d 16bd f209 4bbd 0fbe ca3d
00000140: 6b05 213d e900 76be d837 14be db49 3abe
00000150: 081d 86bb 1bcc 4d3d 0e99 2cbe 6f4f 0cbe
00000160: d30e 34be 8223 44be fa5c e63a 6b7f 8bbd
00000170: 001f 633d 7be1 f9bd ba3a 05be 7410 9f3d
00000180: ca14 083d 3844 b73d be3b 4a3c 5b83 9fbd
00000190: af55 093d ca68 e43b 70ef 8c3d bee8 853d
000001a0: 031e 703e 4f82 433d 8993 30bd 10a5 a4bd
000001b0: 595b 863c d254 923d d736 4e3d 5daf 8fbc
000001c0: b3d8 24be 1505 43bd 99aa ae3a a6b5 bf39
000001d0: 57e8 28bc 06d3 a8bd 3e12 22bd a964 823d
000001e0: 7628 6d3b 189a 213d 11d9 b33d 0451 303d
000001f0: e2ef b03d 1945 d7bd 8696 93bd b82d 0f3d
00000200: c4cd e13d cee6 2a3e ef16 64bd fe29 d0bd
00000210: 4e1d b9bd ac76 46be 6623 893b 3050 47be
00000220: 44ec 68be f23e 27be 602c 6cbe d1da 9abc
00000230: 90cc 17be 3d6a 60bd 3484 073d b010 eebc
00000240: ad17 2cbb 94a4 79bd c5e0 e3bc 7e88 303c
00000250: bafc debc 74b2 b3bd e59d 873c 75a5 a8bc
00000260: 91df 3c3c f66c 1bbd 985b 7abd 97fe 103d
00000270: 01ee c8bd c784 0bbc 6d5d 723b 1baa d2bc
00000280: 559b 0c3b d1b4 563c 3e50 a53c 1e67 533d
00000290: 11b7 093c ef20 8abc 1b62 a93c 18b7 abbc
000002a0: 8d33 543d fb5d a23c 4c64 2d3d 5772 48bc
000002b0: 01f8 a3bd 83ed 663d c06e 13bb fa01 73bc
000002c0: 5d23 27bd 8ec4 ecbc 737c 15bc 8c6c dabc
000002d0: 3fe5 383c de42 4fbd a09b f2bc 1d70 293d
000002e0: 0f5f 12bd ab7f 0f3d 93c6 ecbc f89b 32bd
000002f0: 3067 d93c 2b0a 87bc 8378 0f3d 2253 a0bc
00000300: d1ed bb3a d047 95bb 27b8 503d 5c5e 023c
00000310: ec3d 1c3d ca91 f53c e84c b03a 559b 06bd
00000320: 7a99 3abe 70cd aabd 4bc0 d1bc d660 2abd
00000330: 3d57 e8bd cccc cebd 4a55 5ebd 9e3f 523d
00000340: 2987 003d 00c4 05be 35cd afbc 465a 9c3c
00000350: 653f d23d a199 02bd 53f9 e2bd bf91 65bc
00000360: 0630 ba3d 4416 9b3d dc09 633d 4d18 c7bd
00000370: 3ce7 5bbd a01c 073e 063c c73d 44c0 b53d
00000380: d57d 84bc 7901 12bd ba8f 133d d873 60bc
00000390: 91b5 aeb9 68d3 0d3c f888 8a3d 569f 093d
000003a0: 47e0 283c 158a 673d 1bfe 043e 4e37 063e
000003b0: be07 3c3d 3f10 853c d92d bc3d 88cf 803e
000003c0: 24c7 c43d fe6a 91bc 2887 b4bd da4b cc3d
000003d0: 7aa4 4b3e 7514 173e 8bea 66bd d5da dcbd
000003e0: ca78 693c 0e6d ea3d 21dd c7bd 8016 d33c
000003f0: c756 a5bc 7aba 9ebd 9081 abbd ebd4 513d
0.0038028162 -0.023550684 0.0043559694 -0.06770988 -0.098117776 -0.011812987 -0.057318807 0.017422214
0.07124505 -0.01568666 0.048038773 0.07067867 0.15632139 0.12906654 -0.013517809 0.07483691
0.020160694 0.10064707 0.16947417 0.08384575 0.07443702 0.12153652 0.028544024 -0.030703913
0.06917945 0.10437479 -0.026810322 0.048221346 -0.04814638 -0.018720163 0.032075517 -0.22484016
-0.034576584 0.0047203708 0.012065522 -0.060500994 -0.05248663 -0.011276602 -0.013384905 -0.06977896
-0.06599237 -0.007170311 0.123859465 -0.09182538 -0.041541163 0.021659773 0.16501282 0.20191546
0.13878547 0.23167747 -0.075041294 -0.017746503 0.06933794 0.05219721 -0.024236636 0.011764004
0.13616109 0.1529384 0.10046787 0.048643995 0.07992667 0.119071364 0.08272307 0.13157451
0.15591499 0.16930632 0.04464343 0.037565827 0.0018666993 0.1399985 0.07119243 0.036082897
0.0015953737 -0.07294443 0.08888749 0.15260188 -0.15123671 -0.036771685 -0.04957003 0.09899532
0.039311808 -0.24023785 -0.14474428 -0.18192236 -0.0040928163 0.05024348 -0.1685526 -0.13702177
-0.1758378 -0.1915417 0.0017575317 -0.068114124 0.055449486 -0.1220121 -0.13010684 0.0776681
0.03322295 0.089485586 0.012343345 -0.07788726 0.03352898 0.0069704996 0.068816066 0.06538533
0.23448949 0.047731694 -0.04310945 -0.08039296 0.01640098 0.071450844 0.050345268 -0.017539674
-0.16098289 -0.04761227 0.0013325989 0.00036565698 -0.0103093 -0.082433745 -0.03956818 0.06366856
0.0036187447 0.039453596 0.087816365 0.043046013 0.08639504 -0.10511226 -0.072064444 0.03495571
0.11025575 0.16689608 -0.055685934 -0.101642594 -0.090387926 -0.19381207 0.004185128 -0.19464183
-0.22746378 -0.16332605 -0.23063803 -0.018903168 -0.14824128 -0.054788817 0.033085063 -0.029060692
-0.002625923 -0.06094797 -0.02781714 0.01077473 -0.027220119 -0.087742716 0.016554782 -0.020586709
0.011527912 -0.03794571 -0.061122507 0.035399046 -0.09811021 -0.008515543 0.0036981956 -0.025715878
0.002145489 0.013104633 0.020179864 0.051612012 0.008405463 -0.016861407 0.020676663 -0.02096133
0.051806975 0.019820204 0.04233198 -0.012234292 -0.08006287 0.056378853 -0.0022496432 -0.014832014
-0.04080521 -0.028902318 -0.009123909 -0.026663087 0.011285125 -0.05060088 -0.029615223 0.041366685
-0.035735186 0.035033863 -0.028903281 -0.043605775 0.026538461 -0.01648434 0.03502704 -0.01957089
0.0014337843 -0.00455568 0.05095687 0.007957067 0.03814499 0.029976744 0.0013450654 -0.03286298
-0.18222609 -0.08339965 -0.025604388 -0.041596256 -0.113447644 -0.10097656 -0.054280557 0.0513302
0.0313789 -0.1306305 -0.021460155 0.019086014 0.10265998 -0.031884793 -0.11082711 -0.014011799
0.09091191 0.07572606 0.055429325 -0.09721432 -0.05368732 0.13194513 0.097282454 0.088745624
-0.016173283 -0.035645936 0.03602574 -0.013699494 -0.00033323144 0.00865636 0.06764406 0.03359922
0.010307378 0.05652817 0.12987559 0.13107035 0.04590582 0.016243098 0.09188432 0.25158334
0.096082956 -0.017751213 -0.088148415 0.09975405 0.19886962 0.14753897 -0.05637602 -0.107839264
0.01424999 0.11446582 -0.09758974 0.025767565 -0.02018298 -0.07750411 -0.083743215 0.051228445

fc1.bias f4 [120]
00000000: 4195 233d 37a7 2a39 7555 5abe dc57 03be
00000010: db54 37bd f40e 1abc 9147 c23d 4b57 463e
00000020: b40c 72b7 5def 5dbd 5733 11bd 5330 a2bd
00000030: de3c 633d 3461 ce3d 6709 e23d 00ed 81bc
00000040: 3e5a 65bd ff62 a33e c365 33bd 4574 883c
00000050: 1c67 cfbc 16c4 57bd 4180 6f3b fece bebc
00000060: e9c2 2dbe 8980 783e 3d8e 783d 6df6 c83d
00000070: 147a 753e 1fd8 6ebd a667 ca3d 7f1d cabc
00000080: e3fc 3ebe 504f 4c3e abb3 00bc 8868 573e
00000090: 4784 df3b ef9f 4abd f192 933c 2fb0 bd3e
000000a0: c7f9 6fbd 5786 37bd 2d48 8c3e ed20 733e
000000b0: 31f3 72bd 0a3e e8bc 9297 d0bd f874 023e
000000c0: 1fe8 f63c 5349 59bd b165 853d e109 11be
000000d0: a500 24bc e198 31be efed 90be 5cb4 9f3d
000000e0: 23e1 0c3e 5300 eb3c 7813 d93d f46a c13e
000000f0: b3e3 c43c 725c 423e 23c8 5ebc 9839 a13d
00000100: 1e4b d7bc fe6e 5a3d ab45 b7bc f933 63be
00000110: 6ebb f03e 94a4 31bd a8b1 88bd 86f7 a73c
00000120: 91b2 d63c 22f2 31bd 41e7 653e f321 1fbe
00000130: f92a aabc 1efe 38bd f2f9 cc3e 6bf8 8a3e
00000140: 1ff9 8f3e 6f89 853e ec84 0ebd a235 9c3d
00000150: cff5 21be 10a7 dcbc ff3d 1a3c 6a43 433e
00000160: f21e 003a 74c2 95bd 90c5 46bc 306b 673c
00000170: 3407 0f3c 433b d3bd a990 833d 763d 9abd
00000180: 1245 8fbc c3d5 c93c 950f 0a3c 6ab3 13bd
00000190: 6a99 1cbe 2560 7fbd 099b 9f3e 3f17 5ebd
000001a0: e83c 6ebd 7f13 e03e aaec 283d 7a81 55bc
000001b0: d14a 893e ae60 313e b34b 5fbc b170 9c3e
000001c0: af9d 57bc b8b9 1ebd 1f8b 12be a53e 073e
000001d0: 7b16 c63e 943d 1abd 49c1 13be 4316 61bb
0.03993726 0.00016274756 -0.21321662 -0.12826484 -0.04475866 -0.009402979 0.094863065 0.19369237
-1.4427282e-05 -0.054183353 -0.035449352 -0.07919373 0.05547797 0.10077134 0.110369496 -0.01586008
-0.055994265 0.31911466 -0.04379822 0.016657004 -0.025317721 -0.052677236 0.003654495 -0.023292061
-0.16968884 0.24267782 0.060682524 0.09812627 0.2397235 -0.058311578 0.098830506 -0.024672268
-0.18651156 0.1995213 -0.007855336 0.2103597 0.0068211886 -0.04946893 0.018014403 0.3704848
-0.058587816 -0.04480585 0.27398816 0.23743029 -0.059313957 -0.028349895 -0.1018516 0.12739933
0.03013998 -0.053048443 0.06513537 -0.14163925 -0.010009919 -0.17343475 -0.2830653 0.07798073
0.13757758 0.028686678 0.105994165 0.3777691 0.024034357 0.18980578 -0.013597521 0.07872313
-0.026280936 0.053328507 -0.022372087 -0.22187795 0.47017998 -0.043369845 -0.0667451 0.02050377
0.026208194 -0.043443806 0.22451498 -0.15540294 -0.020772444 -0.04516422 0.40034443 0.27142653
0.28119752 0.26081416 -0.034794733 0.07627417 -0.15816425 -0.02693513 0.009414195 0.19068685
0.0004887424 -0.073124796 -0.0121320635 0.014124677 0.008729745 -0.10314038 0.06424076 -0.07531254
-0.01748899 0.024638062 0.008426567 -0.036059774 -0.15292898 -0.06234755 0.3117297 -0.054221388
-0.058163553 0.43764874 0.041241325 -0.013031358 0.26814893 0.17322037 -0.013628888 0.30554727
-0.013160153 -0.038751334 -0.14310883 0.1320749 0.38689026 -0.03765638 -0.14429201 -0.0034345544

fc2.weight f4 [84, 120]
00000000: b052 8bbd 6e06 81bd e909 46be 3fd4 26be
00000010: fcbd 083d a492 4cbd 136d d4bd 4e49 2cbc
00000020: 24e4 963d 6c3f 353d cc2a 1b3d 30a0 da3b
00000030: eb1c 6d3d dc7b 17bd 56f3 b83d 9435 f7bc
00000040: 3c1d 473d d504 0c3d f485 1e3d 0a79 ae3d
00000050: b1da 91bd 9e19 be3c 0450 733d f032 d53c
00000060: fe16 7ebd 52ee 553c 7eac 51bd 7cb1 2bbe
00000070: 2ab8 f13b 0aa0 aa3d 3559 a3bd 4c18 2ebd
00000080: 6b59 dd3d 9b33 3ebd d29b 3f3d 5bc3 5b3c
00000090: 0083 79bc 8fad 06be 6c8a acbd a616 c53d
000000a0: 8ee5 ffbc 38cb 6dbd 4372 993d f2a0 3b3e
000000b0: 0053 e7ba a00a 7f3d 46c6 8fbd 4d59 a73c
000000c0: 3756 1dbe d805 f03c 8672 27bc 5f32 783d
000000d0: ca39 35bd 3442 b63c 289e 65bc 398c dd3d
000000e0: df27 cebb 19fd 733d c7ef 2fbe f8d8 bf3c
000000f0: 81d3 f0bd e4bb bcba af99 4abe 30b2 dd3c
00000100: d000 93bb c487 703d e078 263d 4234 93bd
00000110: 0a8c a43b 7e29 7bbd fcc0 283d 22de 15bd
00000120: 328f ab3d 9e63 9abd af2d fb3c 3fb4 593d
00000130: 7808 e7bc 3c9c 8f3c 189f d03d cfbe 17bc
00000140: a209 c5bd 2bcd fcbd f080 613d 53bd 213d
00000150: ab51 90bc 9607 84bd 6eb6 cbbc 9d8b 01be
00000160: 90bc 22be 8c43 263d 0833 58bd c742 62bd
00000170: 109d 7bbd d6d2 85bc 660b 5abc 82f5 2e3e
00000180: 5907 57bd e6a0 12be 7a64 043d ffa0 af3c
00000190: 356b 443e 7037 b9bb f796 41bd 7341 79bd
000001a0: 8e83 f2bc 9c68 53bd d429 f33d cc40 28bd
000001b0: 9988 3abd 83ce 01be 68e5 13bd 69b3 d63c
000001c0: 187d a33c 3c63 2d3c 6f8f 46be 061a 39be
000001d0: e378 773e b09e c3bc ba0e 4ebe dd55 1d3d
000001e0: a196 4f3d 2f9a a2bd 3dbd 2abe bc6c 1dbe
000001f0: a37e fbbc 48e5 8ebc 30be 503c d0bb 85bd
00000200: 35d1 bebc 3132 a13d 48de afbd e1e0 f53c
00000210: 1177 b03c 7a0f 2d3b 48a5 9e3c 774c 67bd
00000220: e0fb 943d 05ac 203d f92b 953c a40a d7bc
00000230: a57c 2bbd a0fe 4cba 0b19 433c e4cc 783d
00000240: 35f7 bebd 9070 773c b168 f83d 24fe 443e
00000250: 8cd9 6c3d 567b bb3d 3964 4abd 81f9 563d
00000260: fc7c 9ebd 0db4 c83d e96b da3d 4312 3e3e
00000270: 398d 22bd 2750 f93c 7960 c9bb fb37 bc3d
00000280: 0a59 933d adc7 52bd 99ec 103e ff9f 533e
00000290: e107 a9bd b22f b1bd 014a febc 78ae 5cbe
000002a0: 50bd e03d fb44 98bd d976 a93d cae0 083d
000002b0: 5dae ee3c 57e4 28be e000 f43c f311 283e
000002c0: 3b82 293d fb14 c5bd bcfc ae3c f3c5 833e
000002d0: dc1f 103d 7016 56be e550 b03d cec4 203d
000002e0: b54b 333d 2412 64be 311e fa3c 95e7 3ebe
000002f0: ffd8 2a3e 5122 04be 1a01 69bd c307 133c
00000300: 34de 26bd 166d ef3b b6eb 873d 0c2b f0bd
00000310: 7652 933d 71eb 7a3b 7f06 343e 1546 5c3d
00000320: 7436 9f3e 3956 123e 3367 8f3a 765c 21bc
00000330: ddde 23bd b2a1 84bd 2a5b d03d b5d3 ec3d
00000340: 9ad2 f73d c07a 41bd 078b 4ebd 0bb7 0abd
00000350: 9bbd 17bd 4128 39bd b234 b6bb 3ab6 abbd
00000360: 2836 19bc 8cd0 d43d e3c0 77bd 439f 683d
00000370: 9e80 b5bd 0f10 273d 7a4e d9ba 0c12 ab3d
00000380: 41e6 43bd aa88 f63d 69c5 cc3d c170 3c3d
00000390: e89e 3c3e 1d29 98bd fd44 10be c022 263e
000003a0: 2d41 aa3d 5d49 7d3d 93b7 55bd b4be 153e
000003b0: 899f 043e ba26 a03d b194 ccbd dbb0 933b
000003c0: 1aff 31bd 49db e6bc 264a 16be 1506 a7bd
000003d0: e45c 0cbd 0a87 a33d 839f 473e 89b7 433e
000003e0: c793 e73b daa5 3b3d 4074 62bd f3ad 36bd
000003f0: c76b cf3c 61ac 19be a523 ef3d fc1e bdbc
-0.06802881 -0.063000545 -0.19339718 -0.16291903 0.03338431 -0.049944535 -0.10372367 -0.010515524
0.07367733 0.044249937 0.03788261 0.006671928 0.057888906 -0.036983356 0.09030788 -0.030176915
0.048611864 0.034184296 0.038701966 0.0851918 -0.0712179 0.023205575 0.05940248 0.026025265
-0.062033646 0.013057308 -0.051189892 -0.16766924 0.0073766904 0.08331306 -0.07975999 -0.04250364
0.10808071 -0.046435934 0.04677946 0.013413276 -0.015228987 -0.13152145 -0.084248394 0.096234605
-0.03123739 -0.058055133 0.07492497 0.18323115 -0.0017648637 0.062265992 -0.070202395 0.020428324
-0.1536492 0.029299662 -0.010220176 0.060594913 -0.044244565 0.022248365 -0.014014758 0.10817761
-0.006291374 0.059567545 -0.17181312 0.023418888 -0.11759091 -0.0014399257 -0.19785188 0.027062505
-0.004486181 0.058723226 0.04064262 -0.07187702 0.005021577 -0.061318867 0.04119967 -0.036588795
0.08376922 -0.07538532 0.030661432 0.05315041 -0.02820228 0.017530553 0.10186595 -0.009261801
-0.09620978 -0.1234382 0.055054605 0.039487194 -0.017617067 -0.064467594 -0.024867263 -0.12650914
-0.15892243 0.04059176 -0.052783042 -0.055239465 -0.061429083 -0.016335886 -0.013308382 0.17085841
-0.05249724 -0.1431919 0.032322384 0.021439074 0.19181521 -0.0056523606 -0.047263112 -0.060853433
-0.029603746 -0.051613435 0.118732125 -0.04107742 -0.045540426 -0.12676434 -0.03610745 0.026208596
0.01995711 0.010582741 -0.19390653 -0.18076333 0.24167208 -0.023879379 -0.20122805 0.038411964
0.05068076 -0.079395644 -0.16673751 -0.1537351 -0.030700034 -0.017443314 0.012740657 -0.06529963
-0.023293117 0.078709014 -0.08587319 0.030014457 0.02154115 0.002640693 0.019365922 -0.056469407
0.07274604 0.03922655 0.018209444 -0.026250191 -0.041866917 -0.00078199245 0.011907826 0.060742274
-0.09324495 0.015102521 0.12129343 0.19237572 0.057824656 0.09154384 -0.049411986 0.05248404
-0.07738683 0.09799967 0.106651135 0.18561654 -0.03968546 0.030433727 -0.0061455336 0.09190365
0.07194717 -0.051459957 0.14152755 0.20666502 -0.08253456 -0.08651675 -0.031041147 -0.2155093
0.109736085 -0.07435032 0.082746215 0.0334175 0.029135877 -0.16493355 0.029785573 0.16413097
0.041383963 -0.09623142 0.021360748 0.2573696 0.035186633 -0.20906997 0.086091794 0.039250188
0.04377337 -0.22272545 0.030531975 -0.18643029 0.1668434 -0.12903716 -0.056885816 0.0089740185
-0.040739253 0.007306705 0.06636755 -0.117269605 0.071934626 0.0038287307 0.17580603 0.053777773
0.31096232 0.14290704 0.001094079 -0.009848705 -0.04000746 -0.064761534 0.10173638 0.115638174
0.12100716 -0.047236204 -0.050425556 -0.03386597 -0.037046056 -0.045204405 -0.005560481 -0.08384366
-0.009351291 0.1039134 -0.060486685 0.05679251 -0.088624224 0.0407868 -0.0016579174 0.083530515
-0.04782701 0.12037785 0.099985905 0.046005968 0.18419993 -0.07429717 -0.14088817 0.16224194
0.083132125 0.061837543 -0.052177023 0.14623529 0.12951483 0.078198865 -0.09989298 0.004507167
-0.043456174 -0.028180735 -0.14676723 -0.08155457 -0.034268275 0.07984741 0.19494443 0.19112982
0.007067177 0.045812465 -0.055286646 -0.044599485 0.025319947 -0.15007164 0.116767205 -0.023086064

fc2.bias f4 [84]
00000000: 14c1 90bd 400d 8e3e 663d e33d 86a9 10bd
00000010: de17 823e 77c1 02be 7e99 1a3e 3f07 743e
00000020: 5726 873e ab4f a8bc 86c6 4a3e 27db 873e
00000030: f40e 0bbe b40a 0abe 2ab0 bd3d c8ab b5bc
00000040: de36 f13d 7d41 b43d 6c24 bf3c bb48 383e
00000050: 5bae eebd a660 c23e 898e 313e 2056 71be
00000060: d13d 3c3e e2ea 17bc 4aa2 0cbe f5ab a63e
00000070: 559f 383e 89ca ac3d ba26 033d 1e6a adbc
00000080: 121c 963c 383b f8bd 34eb 4c3e 4d22 04bd
00000090: d825 0f3e ff5a d63d 399b 0e3e 06ee 373e
000000a0: 858c 12be fb9f 06be 5117 2e3d 8364 543e
000000b0: cabc f9bc a82d 7c3e 58bc ddbd 5943 89bd
000000c0: d164 38bd 89b2 183d 49c6 8fbd eaf4 bcbd
000000d0: e6e7 38bc 1ab7 23bc 2b44 8d3e 6d42 1bbe
000000e0: 2ed9 20ba ce27 77bc b23f 9cbe ef28 dcbd
000000f0: 2a78 b6bc 9f00 febc 285d 9e3e 8ef6 33be
00000100: e1dd 053d 5638 ad3c bc90 d7bd 638d 9a3d
00000110: 5bc5 183d f90b 9d3d f9dd 14be e6cd eabd
00000120: a0da ca3d 568e 463e 2bd2 8ebd 25fb c93d
00000130: 7152 653e b3c9 97bd f867 513d 71cf 58bd
00000140: f775 933e 60d5 673e 8d6c debd 9a69 29bd
-0.07068077 0.27744484 0.11095695 -0.03531792 0.25408834 -0.12769113 0.15097615 0.23830889
0.26396438 -0.020545801 0.19802293 0.26534387 -0.13579923 -0.13480645 0.09262116 -0.022176638
0.11778043 0.088015534 0.023332797 0.17996494 -0.116543494 0.37964362 0.17339529 -0.2356801
0.18382956 -0.009272309 -0.13733783 0.32553068 0.1802953 0.08437068 0.032019354 -0.021168765
0.018323932 -0.1212067 0.20011598 -0.032259274 0.1397928 0.10466575 0.139264 0.17961892
-0.14311416 -0.13146965 0.042502705 0.20741467 -0.03048553 0.24626791 -0.10826939 -0.06702299
-0.04501802 0.03727964 -0.07020242 -0.09226401 -0.011285758 -0.009992385 0.2759107 -0.15162058
-0.0006135878 -0.015085174 -0.30517346 -0.10749995 -0.022274096 -0.031006156 0.30930448 -0.17574522
0.032682303 0.021145027 -0.10525653 0.075464986 0.037297588 0.07668299 -0.14537801 -0.11465053
0.09904981 0.19390234 -0.0697368 0.09862355 0.2239473 -0.07411518 0.051124543 -0.052932207
0.28800938 0.2263999 -0.10860548 -0.041360475

fc3.weight f4 [10, 84]
00000000: ad85 a5bd e873 adbe 86e4 8bbd 7819 8f39
00000010: c8e8 98be ded7 4bbe 5c1a 563e ded8 ccbd
00000020: 8524 8fbe f8a6 143e b219 03bb cfce 95be
00000030: 8568 cdbc 71d9 35bd 9ed0 453e 9aec 9b3e
00000040: 09c2 2cbe eb95 6e3d 77d8 30be 8127 c43d
00000050: be90 c1bd 0dfb febc b720 3fbe b15d c9bd
00000060: c4fa 83be 8408 2a3d 8ae9 7fbd d8ee e2bd
00000070: a92b 0fbd 19b2 77bd 9f94 f1bb 6bcb 86bd
00000080: 977e e8bd 4015 323d 34a2 cbbd 9201 ffbd
00000090: debe 543d 68d0 17be e1b3 9bbe 7353 193e
000000a0: 6c38 cbbc 6b49 e6bc 095c b3bd a46a 02bd
000000b0: 0d08 0f3c 7e91 86bd 70c8 54bd 74dc 233e
000000c0: 468e ec3d 8db1 d83d 2f68 55be ae23 6f3d
000000d0: b99f 803e 22b2 643d 86ef 023e de5a 5c3e
000000e0: 4c9a fcbd 2e97 363d 6985 773e 0984 a4b9
000000f0: 55a8 933c b084 ea3d e892 023e 181c 873d
00000100: 2afe 0cbe 9353 283d 7ed9 153e 0f7f 613e
00000110: f952 4dbe 729f 753d 040a 08be 050b d53d
00000120: 362f 36bc 1710 67be 21b9 f23c 1aaa 8dbd
00000130: 8007 dc3d 8c8d 82bb 1ac5 2b3d 7636 1fbe
00000140: 9cb8 bebe 6dba 093d afdd 74bd 948f 6b3d
00000150: 9128 68bd b06a a7be 87e9 6cbc b9fd 213d
00000160: 9d1a ddbd 7ed9 6bbe 05f6 243c 26a7 f03c
00000170: 9fc2 8dbe fff1 c93d 2756 353e ec0b 363d
00000180: 999e 6fbd fe2a efbc 5c7f 9abe a5bd 1bbe
00000190: 2d11 ffbd 112a 87bd 5802 1d3e ebd4 87be
000001a0: e66e cfbc c021 343c ed7f c1bd f78a 043e
000001b0: e97d 843d 1e23 243d 7fd3 8b3d b4f7 78be
000001c0: 1a0d 49be 792e a33d 60e5 8b3d 2515 db3c
000001d0: 33cb 57bd 4840 62be c1f9 bbbc 0d09 313b
000001e0: 4732 96be 837a 913d febe f4bd 8329 833c
000001f0: 337d 333e d997 e63d 8a0a a53b 1ac2 bfbd
00000200: ef31 fa3c 662c 99bd cf87 8abd 773a 17be
00000210: da3e d13d e126 523e 3db8 32bd 74d5 08be
00000220: 34c2 56be ecc1 31be 04da 91be a6c4 9bbd
00000230: 627c 2bbe 43eb bfbd 0846 b13c 0cbe 88bd
00000240: 250c b23c 7332 aebd aef0 a6be ae5c e73d
00000250: 0d52 39bd d525 f5bd 96a0 523e 1b33 8bbe
00000260: 1087 76be 264c 353e 8ea0 84be f1f9 48be
00000270: 6016 f13d 67ed 0cbd 3f3e 99bd fcb0 093d
00000280: aac2 2f3e cc62 463e a5fb cebc 2566 853d
00000290: 6d3b e13d 081e ccbe 42ed 91bd 7e72 f4bd
000002a0: 2f23 8abd 1e95 fb3d 6ee6 f1bd 06b7 dfbc
000002b0: 5158 a63e 0c04 90bd 8abf dc3d 3bbf 57bb
000002c0: 8301 1c3b 3eb4 d53d 5554 3a3d 92f5 553d
000002d0: 1bcc 3f3b 1a3a 1dbd e974 ea3d a059 b6bd
000002e0: 1e27 6d3c be1c b13d 9d2d 4f3d 1d46 a93d
000002f0: f958 b5bd 8c63 d1bc 30a3 0a3d 7f05 523d
00000300: 0089 18be 213f 57be fe71 b93d ba3b cabd
00000310: aed6 a3bd 5cfb 6fbe eeaf a0be 5739 5c3c
00000320: 13de 8f3e bfd3 09be a306 393d e47c 1e3c
00000330: 02f9 a8bd ecee cb3d bf3a 833e 1e82 7f3c
00000340: dd57 89be 1da1 403b 80ee 5dbd 6cd9 503e
00000350: 308a 413b 3a8c c83d fb61 18bd 5829 b83d
00000360: 8d16 cd3d 1111 25be f5b3 d9bc c73c b2bd
00000370: 96e8 56be c553 2d3e 5f65 04be 8a5a f2bd
00000380: 8144 37be e5c0 c23c 9b52 0c3e c0ee c3bd
00000390: 5737 f4bd f29a ec3c 1e8d 203e d10a 983d
000003a0: 48f9 d03d 3c2c 623e 2fc1 41be 4864 373e
000003b0: 92e3 903e 4128 0abc 6ff4 a73c a051 67bd
000003c0: 01ef 7bbe de5e 9c3e 24bd bb3d a802 64be
000003d0: 37ec 11be 1229 53be 0e43 58bd ac7e 0d3d
000003e0: 893f c9bd f5f0 883d 5668 9fbc 0049 47bd
000003f0: 4580 29bd 235a 8f3b 08c6 31be 490c 50bd
-0.08082137 -0.33877492 -0.06830697 0.0002729406 -0.29865098 -0.19906566 0.20908493 -0.10002302
-0.2795755 0.14516819 -0.002000433 -0.29259345 -0.025074253 -0.04439682 0.19317862 0.3045395
-0.16870894 0.05824844 -0.17270075 0.09577847 -0.094514355 -0.03112557 -0.18664823 -0.09832323
-0.25777256 0.041512027 -0.06247858 -0.11080712 -0.034953747 -0.06047258 -0.0073724533 -0.06581768
-0.1135227 0.043477297 -0.09943047 -0.124514714 0.051939838 -0.14825594 -0.30410674 0.1497324
-0.024807177 -0.02811118 -0.08757789 -0.03183998 0.008729947 -0.06570719 -0.051948965 0.16002065
0.11550574 0.1058074 -0.20840524 0.058383636 0.2512186 0.055833943 0.12786683 0.21519038
-0.12334117 0.04457777 0.24171986 -0.0003137889 0.018024603 0.114510894 0.12751353 0.06597155
-0.13768831 0.041095328 0.14633748 0.22021125 -0.20051183 0.059966512 -0.1328507 0.104024924
-0.011119654 -0.22564732 0.029629292 -0.0691721 0.10743618 -0.003984159 0.041936018 -0.15548119
-0.3725022 0.033625055 -0.059781726 0.057509974 -0.056679312 -0.32698584 -0.014459974 0.03954861
-0.10796092 -0.23032185 0.010068421 0.029376578 -0.27687547 0.0986061 0.17708646 0.044444963
-0.05850086 -0.029195305 -0.30175292 -0.15209062 -0.12454448 -0.065998204 0.15332925 -0.2652963
-0.025321435 0.010994375 -0.09448228 0.12943636 0.06469328 0.040072553 0.06827449 -0.24313241
-0.19633904 0.07967848 0.06830859 0.026743481 -0.05268402 -0.22094834 -0.02294624 0.0027013451
-0.29335234 0.071034454 -0.11950491 0.016011005 0.17528228 0.112594314 0.0050366567 -0.09363194
0.030541388 -0.074791715 -0.06764185 -0.14768396 0.10217066 0.20522644 -0.043632735 -0.13362676
-0.2097252 -0.17359132 -0.28486645 -0.07605867 -0.16746667 -0.093710445 0.021639839 -0.066768736
0.021734307 -0.08505716 -0.326055 0.11296974 -0.045244265 -0.119701065 0.20569071 -0.27187428
-0.2407496 0.1770483 -0.25903744 -0.19626595 0.11771846 -0.034406092 -0.074825756 0.03361605
0.17164102 0.19373626 -0.025266478 0.06513623 0.10997663 -0.39866662 -0.071253315 -0.119359
-0.06744992 0.12284301 -0.11811529 -0.027308952 0.32489255 -0.07032022 0.10778721 -0.0032920379
0.0023804612 0.10434769 0.04549058 0.052236147 0.0029265943 -0.038385488 0.1144808 -0.08903813
0.014474658 0.0864806 0.05058061 0.08265326 -0.08854861 -0.025560163 0.033847034 0.051274773
-0.14896011 -0.21020176 0.090549454 -0.09874673 -0.07999931 -0.2343573 -0.31384224 0.013441405
0.28099117 -0.13459681 0.045172345 0.009673331 -0.082506195 0.0995768 0.25630757 0.015594987
-0.26824847 0.0029392906 -0.05418253 0.2039544 0.002953183 0.09792371 -0.037202816 0.08992261
0.10014067 -0.16119792 -0.026575068 -0.087029986 -0.20987162 0.16926487 -0.12929295 -0.11833675
-0.17897226 0.02377362 0.13703386 -0.09567022 -0.11924618 0.028882477 0.15678832 0.07423938
0.102037966 0.22087187 -0.1892135 0.17909348 0.28298622 -0.008432449 0.020502297 -0.056474328
-0.24602892 0.30541128 0.09166935 -0.22266638 -0.14250265 -0.20621136 -0.052798323 0.03454463
-0.098265715 0.06686584 -0.019458931 -0.048653603 -0.041382093 0.004374759 -0.17360699 -0.050792966

fc3.bias f4 [10]
00000000: 78e1 41be 29fa e6bd c050 793c 4226 423e
00000010: c5c4 333e a760 f9bd 45d8 953d db44 453c
00000020: 5f4a de3d 986c 6dbd
-0.18933666 -0.11278183 0.015217006 0.18959907 0.1755553 -0.12176638 0.07316641 0.012040342
0.10854029 -0.05796489
