models/pgd_model.pth (torch, 251167 bytes, 10 tensors)

conv1.weight f4 [6, 3, 5, 5]
000000 db d2 2a bb 48 ff 91 bd ef a7 03 3d 1e 9e 3b bd
       -0.002606562 -0.07128769 0.032142576 -0.04580509
000010 6e 08 05 bc 21 0e df ba b0 8d 80 bd 38 5c 57 3d
       -0.008119686 -0.001701776 -0.06277025 0.05257818
000020 a2 82 01 bd 33 3b d9 bc a1 09 b4 bd fe 16 ea 3c
       -0.03161872 -0.026517486 -0.08790899 0.028575417
000030 5c bf 28 3d 06 60 9a bd b7 7b a8 bc e0 b4 95 be
       0.04119812 -0.07537846 -0.020566804 -0.2923956
000040 6b d0 cf 3d e3 8d 48 3e b0 1d ad bd 27 7f 93 bc
       0.101471744 0.19585375 -0.08452928 -0.018004967
000050 d4 14 85 be 1a ce b4 3d 56 fb 3e 3e 3b 5a d9 bb
       -0.25992453 0.08828373 0.18650565 -0.0066330708
000060 63 2a e1 bd 06 f0 ae 3b b7 1e e8 3c 96 13 e7 3c
       -0.10994413 0.0053386716 0.028334958 0.028207581
000070 00 7e 45 3d 85 ef 38 3d 53 12 ab 3c 3b af 76 bc
       0.048215866 0.0451503 0.020882761 -0.015056427
000080 db cb 14 3e 3a f3 92 bc a7 57 fa 3c 9c a9 8f bc
       0.1453089 -0.017938245 0.030559374 -0.01753693
000090 94 8b 61 3d 5b 98 21 3e 18 57 3c bd 53 57 89 3d
       0.055064753 0.15780775 -0.045981497 0.06706109
0000a0 70 32 5e be 0a 02 63 3e 97 9f 5f 3e 53 56 c3 bc
       -0.21698928 0.22168747 0.21838222 -0.023844874
0000b0 2f 54 39 bd da 88 3a be ab ec 2f 3e 25 a8 94 3e
       -0.0452463 -0.18216267 0.17180125 0.29034534
0000c0 80 10 89 3d a0 0d 85 bd 63 61 9d 3b 87 c2 4c bd
       0.066926 -0.064967394 0.004802869 -0.049990203
0000d0 70 ee 44 3c bd 63 96 bd d8 ef 4f bd a5 50 8d bc
       0.012019739 -0.07343242 -0.050765842 -0.017250368
0000e0 0b 2b 75 bd 38 31 0e 3d 43 08 9a bd 5b 14 f2 bb
       -0.059855502 0.034714907 -0.07521107 -0.0073876805
0000f0 fb 28 91 bd 55 e4 6f 3c 8c 09 e1 3c bd 6d d0 bd
       -0.070878945 0.014641841 0.027470373 -0.10177181
000100 38 df 0b bd 5f ce 7d be f8 e5 04 3e 1b 4f 16 3e
       -0.034148425 -0.24785756 0.12978351 0.14678614
000110 bc b9 0c be 23 93 7f bd 19 08 38 be 13 8f 6e 3d
       -0.13742727 -0.06239618 -0.17971839 0.058241915
000120 06 63 ed 3d b8 4b bd bc 28 eb 0d be 61 bc 9b 3c
       0.11591153 -0.023107395 -0.13859236 0.019010724
000130 de 29 80 3d 22 4f 8b bb 94 0a a2 bd 96 a2 74 bd
       0.062579855 -0.0042513767 -0.07912174 -0.059725367
000140 7f ba 85 3d a8 6f d3 3d a3 e6 12 3d 75 54 66 bd
       0.06529712 0.10324031 0.035864484 -0.05623289
000150 73 cd c0 bd 30 99 4d 3d 3e 98 93 3d a0 a0 8a 3d
       -0.09414186 0.05019492 0.07206772 0.06768918
000160 56 19 3c bc c2 95 a3 bd ea f8 fb 3c 7c 19 83 3d
       -0.01148065 -0.079875484 0.03075834 0.06401345
000170 df 43 85 3d eb 48 6d 3c ec c6 ca bc 4e b8 ca 3c
       0.06507086 0.014482717 -0.024753056 0.024746086
000180 9c 6c 12 3d 79 c3 bc 3c 73 9a 93 3c 13 ad 03 3c
       0.03574811 0.023042427 0.018017983 0.00803687
000190 35 80 fa 3c 58 79 87 3d b2 62 0c 3d 7b 8f b2 3b
       0.030578712 0.06614941 0.03427381 0.005449233
0001a0 1c 5f 33 3c 43 18 38 3d f4 e3 ab 3d 03 f5 8b 3d
       0.010947969 0.044945013 0.08393088 0.06833842
0001b0 75 62 f3 3c 9a 40 55 b6 47 67 19 3d 7b e7 96 3d
       0.029710034 -3.1777076e-06 0.03745201 0.0736837
0001c0 10 9e cf 3d fe 4d 59 3d 42 fe 13 3c 58 f4 e5 3c
       0.1013757 0.053052895 0.009032788 0.028070614
0001d0 06 53 3d 3d a0 b4 82 3d a3 fb 7f 3d c4 74 07 3d
       0.046221755 0.06382108 0.06249584 0.03307034
0001e0 bd 4a 5b 3c 68 57 0c 3d 97 39 39 3d 69 76 5a 3d
       0.013384518 0.034263045 0.045220938 0.05333558
0001f0 74 08 24 3d 56 a6 9c 3d 8c cb cf 3d 4c 23 4e 3d
       0.040047124 0.076489136 0.10146245 0.05032663
000200 a9 cf 11 bc b4 a1 19 3c e0 f7 cd 3d bf 61 16 3e
       -0.008899608 0.009376932 0.10057044 0.14685725
000210 ff 33 9b 3d 4c 45 c2 3b 0c 19 95 bc 9c 9d 8d 3d
       0.07578277 0.005928671 -0.01820042 0.06914827
000220 06 6f e8 3d 21 dd 8c 3d e8 11 99 3c 86 4f d5 bc
       0.11349301 0.068781145 0.018685296 -0.026038896
000230 56 90 e5 3c d4 1b 2d 3d e9 6a 62 3d 73 8a 1f 3c
       0.028022926 0.042262867 0.05527774 0.009737599
000240 f6 6a 94 bc 8e 33 6c 3c 97 ce 16 3c c8 43 91 3c
       -0.01811741 0.0144165885 0.009204528 0.017732516
000250 38 0d 8d 3b 37 f6 2a bc 62 5c 84 bd 5c 17 1e bd
       0.0043045543 -0.010434679 -0.06462933 -0.038596496
000260 81 32 b4 bc b7 e3 74 bd 2c 5f 28 bd c8 8c 9f bd
       -0.021996738 -0.05978748 -0.041106388 -0.07790524
000270 ed 7e c2 bd cf e7 d5 bd d1 76 a1 bd c1 bc cb bd
       -0.094968654 -0.104446046 -0.078839906 -0.09948111
000280 33 14 f2 bd 36 f6 09 be 62 1a 55 bd 78 54 1e be
       -0.11820259 -0.13472828 -0.052027114 -0.1546191
000290 d3 af 17 be a1 31 d8 bd c4 f1 eb bd 52 2b d0 bd
       -0.14813165 -0.10556341 -0.115207225 -0.10164513
0002a0 9a a4 a0 bd 39 a4 14 be dc f5 84 bd d1 dc 99 bc
       -0.07843895 -0.14515771 -0.064922065 -0.018782051
0002b0 4e 20 ba bd de 96 ef bd 83 df 20 bd 51 7e 3d bb
       -0.09088193 -0.116986975 -0.039275657 -0.0028914402
0002c0 2a d0 ad 39 85 b1 30 3c 7e 44 c1 3b 76 63 f2 bc
       0.00033152226 0.010784511 0.0058980575 -0.029588442
0002d0 05 46 65 bc 3c 72 8a bc 1d f9 55 3c 10 a6 05 3b
       -0.013993745 -0.016900174 0.0130598815 0.002039317
0002e0 f9 fe 8e bb 80 ac 0b bd 16 f5 bf 3c be 46 88 3d
       -0.004363891 -0.034100056 0.023432296 0.06654118
0002f0 d6 fb e9 3b 42 c7 fa 3a 84 da 2d bb 91 df f6 3c
       0.007140617 0.001913287 -0.002652795 0.030135902
000300 ad 18 3c 3d 26 6c a3 3c 9f ec b0 bc 12 dd 9a bb
       0.04592197 0.01994903 -0.021597205 -0.0047260607
000310 0b ab 1c bb 22 1c fb 3c e3 33 12 bc 55 ac 3a bd
       -0.002390566 0.030653063 -0.008923504 -0.045574505
000320 8d e6 37 3d 6b d6 53 3d 9a 1b 0c 3e 8b 7e 00 3e
       0.044897605 0.051718157 0.13682404 0.12548272
000330 79 ec 5a 3b ee e8 a1 3d 5f b3 40 3e 55 e4 09 3e
       0.003340511 0.07905756 0.18818425 0.13466008
000340 2f 37 24 3e 81 4f ef 3d 53 e9 da 3d 88 4c 19 3e
       0.16036676 0.11685086 0.10689034 0.149706
000350 ea bb 54 3e 92 91 4e 3e 52 59 20 3e e4 bb 3e 3d
       0.20774809 0.20172718 0.15659073 0.046565905
000360 6b 78 2b 3e 8a 5b a9 3d cc e4 28 3e 17 1b e6 3d
       0.16745155 0.08269413 0.16493529 0.11235636
000370 8a 53 8f 3b 5e 69 7d 3d 3d f9 23 3e dd 6d d2 3d
       0.0043739723 0.061868064 0.16013046 0.10274861
000380 68 cc b6 3c e0 c6 d6 3d dc b6 da 3d 14 43 0e 3d
       0.022314265 0.10487151 0.10679409 0.03473194
000390 f6 79 09 ba 38 fa 74 3d ed b4 40 3e 03 e5 10 3e
       -0.0005244309 0.05980894 0.18819018 0.14149861
0003a0 0b f7 9a 3d 71 33 96 bd 39 bb 30 bc ad 2d 05 3e
       0.07566651 -0.073340304 -0.010786825 0.13005705
0003b0 29 a2 6b 3e 71 58 c4 3d f7 7d a3 bd 10 45 03 be
       0.23011078 0.09587181 -0.0798301 -0.12819314
0003c0 21 a4 ee 3d 2c e1 1f 3e 15 a4 e6 3d 4e b9 37 bd
       0.11652399 0.1561324 0.11261765 -0.044854455
0003d0 13 f3 02 be 10 40 4c 3d fe af a4 3d 67 84 a0 3d
       -0.12788038 0.049865782 0.0804138 0.07837754
0003e0 76 7f d9 bc 56 50 b8 bd 4d b4 ed bb 5f de 0b bd
       -0.026550036 -0.08999698 -0.0072541595 -0.034147616
0003f0 0f 45 e0 bd 0d 40 28 be 8f ea de bd b2 f4 f4 3c
       -0.10950672 -0.16430683 -0.10884582 0.029901836

conv1.bias f4 [6]
000000 89 9b a6 3d 87 40 a8 be 77 49 bc bd 3d cd 02 3d
       0.08135135 -0.3286173 -0.091937 0.03193401
000010 5b 83 13 bd 96 97 18 3c
       -0.036013942 0.009313485

conv2.weight f4 [16, 6, 5, 5]
000000 f6 07 f8 bb 06 ae 84 3c 9b db 24 bd 83 44 b5 bd
       -0.0075693084 0.016196262 -0.040248495 -0.08850958
000010 df ff 43 bd 86 00 2f 3d ed aa 7d 3d 2e 0d b4 3c
       -0.04785144 0.04272511 0.061930586 0.02197894
000020 59 89 e3 bc d3 f8 6c bd 44 67 24 3c 8f cb 4c 3e
       -0.027775453 -0.057854485 0.010034386 0.19999526
000030 42 48 ad 3c 99 f7 6b 3d 3e 05 e1 bd dc 8e 7c bd
       0.02115262 0.057609174 -0.10987328 -0.06165968
000040 d1 cd 16 3e 0b 2e 0a bb 2a 22 c5 3d 87 0e 59 bd
       0.1472695 -0.0021084573 0.09625657 -0.05299237
000050 3b 2f 79 3d a7 42 0d 3e 39 55 d1 3c 50 33 c1 3d
       0.060836058 0.13794957 0.025553333 0.09433615
000060 9a a5 52 3d 4e 4b a9 bd 29 57 ef bd 7d 3b 8c 3c
       0.05142746 -0.08266316 -0.11686546 0.01711821
000070 be 83 3b bd bc cc 23 bd 86 fa be bd 95 4d cd bd
       -0.045779936 -0.03999017 -0.09325127 -0.10024563
000080 e8 38 53 bd 78 5d 50 3d 74 82 99 3d c2 4b b5 bd
       -0.051567942 0.05087039 0.07495585 -0.0885234
000090 fa 09 04 3c 13 62 5a bd 6b bf 84 3d 71 65 a5 3d
       0.008059019 -0.053316187 0.064818226 0.08075989
0000a0 68 3e ad bd a3 59 e0 bb f6 5d 95 bd db 65 90 3d
       -0.08459169 -0.006846623 -0.07293312 0.070506774
0000b0 6a b6 10 3e 14 77 b1 bd ae 02 7d 3d ce e1 b6 bd
       0.14132085 -0.086652905 0.061770134 -0.089297876
0000c0 8a a9 a9 3c 69 87 cf 3d a6 33 54 3d 65 d0 8a bd
       0.020710725 0.10133249 0.05180707 -0.06778029
0000d0 3a 86 cb bd d3 79 fa bd f6 f6 e5 bd 15 7e 22 3e
       -0.09937711 -0.122302674 -0.11228745 0.15868409
0000e0 35 f9 3a bd 6a 09 d9 bd a2 98 08 be 1a 2d e4 bd
       -0.04564782 -0.10597499 -0.13339475 -0.11141415
0000f0 c5 47 4c 3e 61 ce e1 3c 8e 0a 5b bd c7 b8 ee bd
       0.19949253 0.02756423 -0.053476863 -0.11656337
000100 aa 94 1f be c3 35 29 3e 60 74 39 3d 89 e0 6a bd
       -0.15584055 0.16524415 0.045277 -0.05734304
000110 95 67 23 3b 11 7a 10 bd 5d 3b ce 3d 60 f1 1e 3c
       0.0024933566 -0.03527266 0.100699164 0.009701103
000120 5b b5 27 bd f5 00 b6 bc 72 c9 35 bd fe bc d7 3d
       -0.04094444 -0.022217253 -0.044381566 0.10534094
000130 e8 52 03 be 0d ea 12 be ed b8 62 bb 19 51 c3 bd
       -0.12824595 -0.14347096 -0.0034595088 -0.095369525
000140 84 0a 61 bc 52 fe 2c bd b8 94 25 be ae ac d5 bd
       -0.013735417 -0.042234726 -0.16170013 -0.10433327
000150 9f 23 8d bd 01 96 87 bd 13 e7 40 3e c7 7a 77 be
       -0.0689156 -0.06620408 0.18838148 -0.2416793
000160 d6 53 d6 3c 38 cb a6 bd 16 89 66 bd 92 5d a3 3e
       0.026163023 -0.0814423 -0.05628308 0.31907326
000170 cd b4 88 be f6 9c 02 3d bc 84 e6 bd 4a 2c 09 be
       -0.2670044 0.03188797 -0.11255786 -0.13395801
000180 e2 70 8d 3e 8c 05 88 bd b4 b8 27 be 2f b2 97 3c
       0.27625185 -0.06641683 -0.16379052 0.018517582
000190 8f 52 40 be 7c 74 0b be be c5 85 bd a8 c5 a4 bc
       -0.18781494 -0.13618654 -0.06531857 -0.020113781
0001a0 10 72 2e 3c 87 f4 c7 bd 89 2e 9b bd 9d 31 8c 3c
       0.010647312 -0.09763437 -0.07577235 0.017113501
0001b0 99 dc 9e 3d d0 5b b3 3d f7 2d 87 bd 69 fe 8d bb
       0.077569194 0.08757746 -0.06600564 -0.0043333066
0001c0 1f 8b 83 3c 3b 3e 9b 3d ca d0 69 3d 77 04 a7 3c
       0.016057549 0.07580229 0.057083882 0.020387871
0001d0 3a cb 74 bb 17 98 7a 3d 6e 9a 0b 3d b0 ff 0c 3d
       -0.0037352578 0.0611802 0.034082823 0.03442353
0001e0 76 4d 8c bd a8 a7 ab bd 92 4f 2a 3d 29 b2 2b 3b
       -0.06850712 -0.08381587 0.04157979 0.002619872
0001f0 32 40 2a bd 87 d4 3c be bf 04 30 be d8 41 23 bd
       -0.041565128 -0.18440448 -0.1718931 -0.039857715
000200 60 6d d9 3c 72 d1 03 3d c4 a1 43 be 55 6f c3 bc
       0.026541412 0.032182164 -0.19104677 -0.023856798
000210 4b 51 4e 3d fd 63 59 3e bb 5c 8e 3d d7 52 d8 3c
       0.050370496 0.21229549 0.06951281 0.026406689
000220 42 3d 80 3d 9d d4 26 bb f3 d4 83 3e d1 3a 7c 3e
       0.06261684 -0.0025456317 0.25748405 0.24631812
000230 a9 8e 39 bd 50 08 96 bc 72 20 ca bd da e5 2a 3d
       -0.045302067 -0.01831451 -0.0986947 0.04172311
000240 3c 13 9a 3d 56 fc 23 be 1f cc c8 bd 53 1a 70 3a
       0.075232 -0.16014227 -0.09804558 0.0009159196
000250 1c 04 07 be 0c a3 f6 bc 59 08 48 bd 81 b7 f2 bd
       -0.13185161 -0.030107044 -0.048836086 -0.11851407
000260 98 df 48 be f4 8c 7a bd fd d8 e6 3c 2d 1b 50 bd
       -0.19616544 -0.06116958 0.02817964 -0.050807167
000270 64 1d 01 be 02 c1 b9 bc 32 34 93 3d 75 dd fb 3a
       -0.12608868 -0.022675041 0.0718769 0.001921578
000280 b9 70 ad bd ce c2 09 bd de 50 35 3e 6f a4 19 3e
       -0.08468766 -0.033633046 0.1770663 0.15004133
000290 d8 99 27 bc bb 5a 48 3c eb 8c 12 3e 1c a5 34 3e
       -0.01022955 0.012228663 0.14311568 0.17641109
0002a0 ba 42 9b 3d cb 92 8f 3c 9b 92 82 3d 08 63 50 3e
       0.075810865 0.017526051 0.06375619 0.20350277
0002b0 80 02 80 3e b8 0c 9d 3d ec 1a 9c 3b 1e 40 68 3e
       0.25001907 0.076684415 0.0047639515 0.22680709
0002c0 fb da 72 3e dc 97 ab 3d fc 1d 97 bd da c6 43 3c
       0.23716347 0.08378574 -0.07378766 0.011949265
0002d0 dc 6e 1a 3e 53 7d 05 3e 80 a3 ee bd 64 46 93 bd
       0.15081352 0.13036089 -0.11652279 -0.0719116
0002e0 cc 11 a3 3c 83 f4 9a 3d af 79 44 bd d3 97 53 be
       0.019905947 0.07566168 -0.04796761 -0.20663385
0002f0 ff d2 96 bc cc e8 3d 3d 7a 86 8c 3d 33 49 24 be
       -0.018411158 0.04636459 0.06861587 -0.16043548
000300 f5 05 c7 bd 8c f1 26 bd 79 f5 06 3e 68 62 4c bd
       -0.09717933 -0.0407577 0.13179578 -0.049898535
000310 26 c4 25 be 79 f1 a1 bd b3 a9 ee 3c f2 cf 14 3e
       -0.16188106 -0.079073854 0.029133653 0.1453245
000320 cf 40 71 3e c6 94 5e 3e 16 de b4 3d 29 02 ad 3d
       0.23559879 0.2173644 0.08831422 0.08447678
000330 18 b1 00 3d b0 05 f5 3d 76 d3 c5 bc 2f ba e7 bd
       0.03141889 0.119639754 -0.024148684 -0.113148086
000340 4a 80 26 be 7a a5 de bd a3 06 bc 3d f9 2a 03 bd
       -0.16259876 -0.10871406 0.09180953 -0.032023404
000350 51 46 11 be 89 88 ca bd 2c 4a 79 bd f3 1c 0d 3d
       -0.1418698 -0.09889323 -0.06086175 0.034451436
000360 42 fb 56 bd c8 94 20 bd 50 ba 5b 3d 3a 33 8d bd
       -0.052485712 -0.03920439 0.05364448 -0.06894536
000370 86 59 37 3d 68 70 3f bd 87 b1 66 bd 1a cd 33 bd
       0.04476311 -0.04673806 -0.056321647 -0.043896772
000380 5c 45 2e bd 60 d5 a7 bd 23 f6 de 3d ee 04 1d 3e
       -0.042546615 -0.08194995 0.108867906 0.15333912
000390 f7 92 c5 bd 4a 04 0d be c3 7f 9e 3d 5f e2 3f 3e
       -0.09647172 -0.13771167 0.07739212 0.18738697
0003a0 df 5f 8f 3d 0e a8 b2 bd 50 9f 8d 3d c2 a3 4a 3e
       0.07000708 -0.0872346 0.06915152 0.19789031
0003b0 8a 28 16 3e db c1 77 3c 61 51 be bc 65 87 0c bd
       0.14663902 0.015121902 -0.023232164 -0.03430881
0003c0 59 36 f9 3d 28 a5 b3 3d a8 45 0c 3e 68 82 22 bc
       0.12168569 0.087717354 0.13698447 -0.009918787
0003d0 d0 2d 06 be b1 2c 56 3e 47 32 43 3e 66 ce 31 3e
       -0.13103414 0.20915486 0.19062148 0.17363891
0003e0 b3 75 39 3d e1 f7 01 be 7e 3a 32 be 72 18 c9 3d
       0.045278262 -0.12692215 -0.17405125 0.09819116
0003f0 07 cf 15 3e ec ec ce 3c 30 39 95 3d 91 58 37 bc
       0.14629756 0.025259458 0.07286298 -0.0111905495

conv2.bias f4 [16]
000000 93 cc 04 3f 98 65 c6 be 17 10 89 bd 92 ef 36 be
       0.51874655 -0.38749385 -0.06692522 -0.17864826
000010 dc 56 04 be f6 47 1d be 3f 4b f4 bd ea 90 09 3e
       -0.12923759 -0.15359482 -0.119284146 0.13434187
000020 9f cd cc bd 1e ad 22 3f 62 00 16 bb 1d de 80 3d
       -0.100001566 0.63545406 -0.0022888412 0.06292365
000030 46 e7 c1 3e 0c f3 e3 3e fc 2c e3 3d b1 78 c3 3e
       0.3787176 0.44521368 0.110925645 0.38178018

fc1.weight f4 [120, 400]
000000 9d 57 75 bc 56 78 a5 bd 94 dd ad bd 16 71 35 bd
       -0.014974502 -0.08079593 -0.08489528 -0.0442973
000010 5b 71 2d be 63 90 4b be f4 d6 77 be 1d eb 51 3b
       -0.16937773 -0.19879298 -0.24203092 0.0032031008
000020 e2 b5 4e bd 9a 94 86 3d cd cd ba bd 57 a9 8e 3d
       -0.050466426 0.06571312 -0.09121285 0.06965893
000030 39 13 35 bd ff c7 10 3d 8f 9b 06 3e 6b 15 5c 3e
       -0.044207785 0.03534698 0.13145278 0.21492545
000040 56 4a 20 3e f3 8a af 3d 61 20 2e 3d 1a e5 21 3d
       0.15653357 0.08571424 0.042511348 0.03952513
000050 78 05 49 3e e4 2b a8 3e 57 de 03 3e 9b 95 d4 3d
       0.19630992 0.32845986 0.12877785 0.103800975
000060 05 3b c2 bc d7 73 3f be 3c 79 f7 bd 2a ab 94 bd
       -0.023709783 -0.18696533 -0.120836705 -0.072592095
000070 74 c4 df bd 04 21 3e be 19 00 7e bd 88 a4 a5 bd
       -0.10926142 -0.18567282 -0.062011812 -0.080880225
000080 19 1a 74 bd 2e 2d f2 bc e1 59 40 be 6a dd 68 bd
       -0.0595952 -0.029562559 -0.18784286 -0.056851782
000090 52 37 30 3d 19 00 2d bd 35 9f bf bd f7 18 0f be
       0.043021508 -0.04223642 -0.09356538 -0.13974367
0000a0 77 83 e5 bc 24 01 a8 bc 29 83 d0 3d 3c 82 e2 ba
       -0.028016789 -0.020508356 0.10181267 -0.0017281245
0000b0 36 9b 1a bd 99 5d b1 be 2d 99 46 be ef 33 b6 be
       -0.037745677 -0.34641722 -0.1939437 -0.35586497
0000c0 36 ba 52 be 95 10 f0 bd 28 5e 76 bc db e2 ed 3c
       -0.20578846 -0.11721913 -0.015037097 0.029038837
0000d0 b0 2c a8 bb fa d6 08 bd 9d 38 e9 bc 45 59 49 bd
       -0.0051322803 -0.033408143 -0.028469378 -0.0491574
0000e0 f5 a7 97 3c c2 58 e6 bc d9 f9 23 bd 80 0a 16 3c
       0.018512705 -0.028118495 -0.040033195 0.009157777
0000f0 9f 00 28 3d 3c 77 79 3c da c8 f9 bc 07 a5 05 3d
       0.041016217 0.015226182 -0.030491281 0.032628085
000100 3a c0 cd bc af 63 0b bd 2c 2d c9 ba f3 db e4 3c
       -0.025116075 -0.034030613 -0.0015348545 0.027936911
000110 75 c0 d0 bc 1c f6 b5 b9 c0 ce 30 3d 4f b0 f2 bc
       -0.025482396 -0.00034706376 0.043165922 -0.029625086
000120 c3 c0 cf bc a2 ee 1a bd 7e 27 b7 bc 2e 92 5d 3d
       -0.02536047 -0.037825234 -0.022357699 0.054094486
000130 ad 59 96 3d 2d 75 a7 3c 61 14 07 3d 3f 09 1c 3d
       0.07341323 0.020441616 0.03297842 0.038094755
000140 45 e2 21 3e 75 2d a5 3d de bd 0a 3e 14 29 03 3e
       0.15808971 0.08065311 0.13548991 0.12808639
000150 5d 7a cf 3d 83 01 b6 3c d0 80 17 3e 63 c3 03 3e
       0.10130761 0.022217518 0.14795232 0.12867503
000160 d5 9a 4d 3e 1d 17 8a 3b 1c 58 38 bd 65 b0 c3 3d
       0.20078595 0.004214181 -0.045005903 0.09555129
000170 c5 87 13 3e 49 b2 fd 3d 86 5a aa 3d a2 d6 94 bd
       0.1440726 0.12387521 0.08318047 -0.072675005
000180 cc a2 c2 3b 57 d3 7f bd 9e e5 d6 bd 05 3c 17 be
       0.005939817 -0.06245741 -0.10493015 -0.1476899
000190 24 ab 17 be d2 7a 8d bd 75 8f 6f bd 65 b7 98 bd
       -0.14811379 -0.06908192 -0.05848642 -0.07456855
0001a0 8a e8 b6 be a7 53 0d be 00 73 32 3d 33 e3 08 3c
       -0.35724288 -0.13801442 0.043566704 0.00835495
0001b0 67 c5 6a bd 56 dc 4c be 87 dc d7 3d 41 ee 76 3c
       -0.057317164 -0.20005926 0.10540109 0.015071453
0001c0 2e bf af 3c b1 52 56 bd 27 b3 3a bd 91 06 b2 3d
       0.021453466 -0.052324954 -0.04558101 0.08692659
0001d0 e7 ec 7d bd 39 01 f3 3d 14 71 b6 3d df fc 02 3e
       -0.061993506 0.118654676 0.08908287 0.12791775
0001e0 91 45 3b bd 7f 2f 3d 3d df 15 af 3d 25 59 0c 3e
       -0.04572064 0.046187874 0.085490935 0.13705881
0001f0 0c 25 42 3e 2d 83 2f 3e 73 1f d4 3a 88 00 6d 3e
       0.18959445 0.17139883 0.0016183689 0.23144734
000200 dc 3a a2 bd 48 c3 3b be e4 c4 e9 3d d6 bc 28 3e
       -0.07921383 -0.18336213 0.11414507 0.16478285
000210 82 1c 5d 3e 41 67 14 3e 4d a4 dd bc cf a2 25 3d
       0.21592906 0.14492513 -0.027055884 0.04043847
000220 49 cd fb 3d de 7f df 3d ea 85 22 bd 13 20 6b bd
       0.122950144 0.109130606 -0.03967849 -0.057403635
000230 f2 e3 a5 3d 7a b8 3c 3e ab c4 b7 3d 61 80 33 bd
       0.08100118 0.18429747 0.08973058 -0.043823604
000240 90 82 bc bc de 36 13 be dd 95 ca be 4f 06 09 bf
       -0.023011476 -0.14376399 -0.39567462 -0.5352525
000250 ae 46 b6 be 88 fd d0 3d 2f b8 a1 bd eb 17 04 be
       -0.356008 0.10204607 -0.07896458 -0.12899749
000260 7e b4 f9 bd a7 50 73 be 2a 3f 97 be 83 f1 fd bd
       -0.12192629 -0.23761235 -0.29540378 -0.1239958
000270 8d 71 de bc 4a e6 00 3d 12 43 cb 3d 60 d2 69 be
       -0.027153755 0.03146962 0.09924902 -0.22834158
000280 ce 5e 13 3e a4 ce 48 3d ab 5e ce 3d 01 fa 83 bd
       0.14391634 0.049025193 0.1007665 -0.06444169
000290 1d 09 0c be de 21 0b bd 5f 12 06 be 87 e6 92 3d
       -0.13675351 -0.033967845 -0.13092946 0.07172876
0002a0 a5 c4 00 3d fa f3 da bd 46 f1 53 bc 04 28 63 be
       0.031437535 -0.10691066 -0.012935942 -0.22183233
0002b0 22 c1 a2 be 38 e1 87 3d 53 2a 9f 3d 64 75 6d 3d
       -0.31787974 0.06634754 0.077717446 0.05797328
0002c0 00 f5 65 3d b7 4f 04 bd 81 06 42 bd 1e fd 94 3d
       0.056141853 -0.032302584 -0.047369484 0.07274841
0002d0 99 cc 51 3d 8c 08 bc bd d9 f1 af bc 19 a3 81 bc
       0.05122051 -0.09181318 -0.021477627 -0.015824841
0002e0 65 ca 6d bd ae 6e 22 bd 50 5c 37 be 85 a9 82 be
       -0.058054347 -0.039656334 -0.17906308 -0.25519958
0002f0 b9 43 6a be a6 19 5b bd ae b5 04 bd 7c 3e 2d be
       -0.22877397 -0.053491257 -0.032399826 -0.16918367
000300 60 82 9b be 7d 65 3f be 91 28 60 3d e4 cd eb 3d
       -0.30372906 -0.18691058 0.054726187 0.1151388
000310 57 5f 40 3c d3 e7 7e bd fa 17 d9 3c 4b 1c 2d 3e
       0.011741481 -0.062232804 0.02650069 0.16905324
000320 3f 6d c4 3d f5 4b ae 3d b4 ae 00 be 29 2b 39 be
       0.095911495 0.085105814 -0.12566644 -0.1808287
000330 4e 1b 9c be fe 28 a2 3d 80 86 2d 3e b8 5e 3a 3e
       -0.30489582 0.07917975 0.16945839 0.18200195
000340 2c ca 5d bd 29 a1 90 be d6 aa 9c bb ac 51 12 bd
       -0.054147884 -0.28247955 -0.0047811074 -0.03572242
000350 1e 1c 49 3d 05 45 7a 3d 2f 2e 95 bd 5c 62 ec 3d
       0.04909908 0.06110098 -0.072841994 0.11542198
000360 e6 15 e5 3d c3 e7 da 3d eb 31 d4 bd eb 84 80 be
       0.111858174 0.10688736 -0.103610836 -0.25101408
000370 0e c4 0a 3e 8c 93 89 3c 9a 7a 8b bc b1 5b 8b 3c
       0.13551351 0.016793989 -0.017026234 0.017011495
000380 22 40 d5 bd 54 da 0e bf 7b 19 8e be 66 5a 77 bc
       -0.10412623 -0.5580189 -0.27753815 -0.015097236
000390 7f 9e 1f bd 67 f7 02 bd 9d 32 c8 be 23 e9 66 bd
       -0.038969513 -0.031974223 -0.39101115 -0.05637468
0003a0 ad d3 e9 3e ff a8 70 bc 82 07 67 3d af 11 6f bd
       0.45669308 -0.014688729 0.056403644 -0.058366474
0003b0 a2 d1 22 bd dc 2d 75 be cd ab b2 3d 2c 05 74 3e
       -0.039750703 -0.23943275 0.08724175 0.23830098
0003c0 78 2c 18 bd 82 2b d0 3d 21 d5 d5 3b 4f 77 d6 3d
       -0.037151784 0.101645485 0.006525651 0.10471975
0003d0 2e 8e 1a 3d 78 81 8c bb 0c 4b 03 bd da 8f 92 3d
       0.03773325 -0.004287895 -0.032053992 0.07156344
0003e0 88 45 80 bd 86 05 ca bd b6 75 2e 3d 01 ea b7 bd
       -0.06263262 -0.09864335 0.042592727 -0.089801796
0003f0 a3 ad bc 3c f1 d9 a7 3d 7f 94 ff 3d ff 58 0f 3e
       0.023032015 0.08195866 0.12479495 0.13998793

fc1.bias f4 [120]
000000 3e 62 c6 3e d1 10 44 bd 4b 37 30 3d 47 23 b2 3e
       0.38746828 -0.0478676 0.04302148 0.3479254
000010 ac 08 5e 3c 7f 18 6c bd d3 55 8a 3e d9 ef 5b 3b
       0.013551872 -0.05764055 0.27018604 0.0033559708
000020 c3 85 a9 3e 46 c3 27 be 30 de 24 be 89 92 2b 3c
       0.33109865 -0.16383085 -0.16100383 0.010471948
000030 a8 3d 68 be 85 8d 9b 3e 97 16 35 3e 4a 8a 2d 3e
       -0.2267977 0.30381408 0.17684399 0.16947284
000040 a2 66 1b 3d 73 6e 7e be da cc c5 3e 2a 14 cd 3e
       0.037939675 -0.2484682 0.38632852 0.40054446
000050 1f 96 f9 3c ad 5f 8f bd a3 9b 32 3e a2 b6 49 bd
       0.030467091 -0.070006706 0.17442183 -0.049246438
000060 78 80 68 be cb 9a 9e bc d2 b8 be bd 23 bd 88 3e
       -0.22705257 -0.01936092 -0.093125954 0.267068
000070 8f d3 85 3c 2c 71 99 3e e5 c6 c7 bc 4a d2 12 3e
       0.01633623 0.29969156 -0.024386832 0.14338031
000080 a5 6c 10 be e0 34 37 bd e3 b0 27 bd 63 a5 9b 3e
       -0.14103945 -0.04472816 -0.040940177 0.30399618
000090 92 e6 28 3d d5 08 f2 3c 9c 80 81 3e 25 20 9c bd
       0.041235514 0.029545227 0.25293434 -0.076233186
0000a0 87 fa bb bd 16 ea 83 bd d3 b8 61 bd 63 47 93 3e
       -0.09178644 -0.06441133 -0.055107903 0.287654
0000b0 ff b6 30 3d e3 a0 9c 3e a5 1b 21 3e 22 f2 0f bd
       0.04314327 0.30591497 0.15733202 -0.035143025
0000c0 e8 8d 8d be a7 ff 93 bc 32 36 98 3e 12 0e 9a 3e
       -0.27647328 -0.01806624 0.29728848 0.3008886
0000d0 ee 9b b5 be c7 08 3f 3e 28 38 31 3e 67 61 83 bd
       -0.35470527 0.18655692 0.17306578 -0.064150624
0000e0 bd cc 29 bd 74 a6 83 bd 2f 02 5c 3e 6b c7 3f be
       -0.04145502 -0.06428233 0.21485208 -0.18728416
0000f0 fd c0 b9 3e 8f 1a 03 be 51 58 63 3e 73 6c 9d bd
       0.3628005 -0.128031 0.22201659 -0.07686701
000100 ee 71 26 3e 0e 19 a0 be 83 16 51 be fc 78 4a bd
       0.16254398 -0.31269115 -0.20418744 -0.049431786
000110 e4 28 c1 3c 29 73 3c 3d 26 9d a4 3d fc 73 31 bd
       0.023579068 0.046008263 0.08037786 -0.043323502
000120 cb b1 44 3c 4c b0 98 bd 1c c7 f8 3c e6 b7 ee 3d
       0.01200528 -0.07455501 0.03036838 0.116561696
000130 a3 ba d3 3d 7b 40 15 bc 8e 01 87 bd e3 0e 24 be
       0.103383325 -0.009109612 -0.065920934 -0.16021304
000140 5f 8b 64 bd 9a d2 79 3e fa ea 41 bd 29 c9 ab 3d
       -0.055796977 0.24396744 -0.04734323 0.08387978
000150 de b7 8b be 73 22 85 bd ea 4f 13 3c c2 18 1b bb
       -0.27288717 -0.06500711 0.008991221 -0.002366588
000160 28 36 04 3e 60 14 84 bc 7a cc 6d be e1 db ed 3e
       0.12911284 -0.016122997 -0.23222533 0.46456817
000170 fb 07 2c bd a9 c1 05 3f 96 a1 5b 3e 64 fb 0b 3d
       -0.0419998 0.52248627 0.21448359 0.03417529
000180 a3 34 97 bd 76 af c5 bc 24 8b 06 be 12 7d 2a 3e
       -0.073830865 -0.024131518 -0.13139015 0.16649273
000190 f3 01 6a 3c 1b 9b 78 3c 5c b1 dd 3e 6d 9a ff bc
       0.014282691 0.015173699 0.43299377 -0.031201566
0001a0 29 29 a4 3d 1d 57 42 bd 8e ce 1f bc 90 a6 01 3d
       0.08015663 -0.04744636 -0.009753836 0.031652987
0001b0 f1 99 f4 3c 67 c2 63 3e 1e 2e f4 bb 73 fa dd bd
       0.029858561 0.22242127 -0.0074517867 -0.10838785
0001c0 4e a3 81 bd c4 0f db bc 44 c6 6c bc 97 5f 7c 3e
       -0.06329976 -0.026740916 -0.014451567 0.2464584
0001d0 48 97 8f 3c e2 18 89 bd 9c 01 5b 3d 04 ba 38 3e
       0.017528191 -0.06694199 0.05346833 0.1803971

fc2.weight f4 [84, 120]
000000 2c 30 a8 3d 37 17 8d 3e 4d 46 4a 3e 50 cf 11 bd
       0.08212313 0.27556774 0.1975338 -0.0355981
000010 5e 50 1a 3d 37 ab 85 bd e4 82 db bd 2f 72 49 3e
       0.0376743 -0.06526797 -0.10718325 0.19672464
000020 b6 c2 25 3d 7e 82 8c bd 81 09 89 3d a5 00 6f bd
       0.040468894 -0.06860827 0.06691266 -0.058350224
000030 fc 98 8c 3d d5 14 ed bd ef 9b 2c 3e 56 30 c4 3d
       0.06865117 -0.11576239 0.16856359 0.09579532
000040 18 03 4b bc 8b 6a f9 3d c2 b8 8b bd c7 d9 2b 3e
       -0.012390874 0.121785246 -0.06822349 0.16782294
000050 48 48 24 bd 38 fa a1 bd cf b1 57 be d7 23 06 3d
       -0.040107995 -0.079090536 -0.21063922 0.032749023
000060 64 2f 20 3d 0c c3 21 3a fb 41 b2 be 15 b3 97 3d
       0.039107695 0.0006170727 -0.34815964 0.07407204
000070 68 91 96 bd d8 ff 49 3d e9 fa de bc 79 29 2d bb
       -0.07351953 0.049316257 -0.027219253 -0.0026422425
000080 c4 09 33 3e 20 d6 87 3d 36 a0 4f bd 63 6b 29 be
       0.17484194 0.06632638 -0.0506899 -0.16544871
000090 22 a4 b3 bd cc 2d 33 3e b0 b8 5b bd 9f 0b 62 bd
       -0.0877154 0.17497939 -0.05364293 -0.055186864
0000a0 43 8c e5 bd 4b e7 b6 b9 93 52 87 bd 79 c4 83 be
       -0.112083934 -0.00034886072 -0.06607547 -0.25735834
0000b0 56 bc 06 bd 93 e3 ac 3d f1 de 24 be ea dc 1a bc
       -0.032894455 0.08441844 -0.1610067 -0.009452084
0000c0 ab 71 9a 3c b2 2d 1e 3b 1b 08 52 be 58 dc 84 3d
       0.01885303 0.0024136123 -0.20510904 0.0648734
0000d0 2e 0d a5 bd c3 d7 1e 3e d1 08 b6 bd 5a ea c3 3c
       -0.080591545 0.15511994 -0.088884 0.023915458
0000e0 28 31 c2 3d 0b 5d 80 3d d6 b0 00 3e 4e da 1a 3e
       0.09482032 0.062677465 0.12567458 0.15122339
0000f0 5a 68 82 3e a8 27 d4 3d f8 63 18 3e 5d 14 2c bd
       0.2547024 0.10359126 0.14881885 -0.042011607
000100 ba f0 75 be fc e0 96 3c b8 6b 37 3e a6 c5 7a bd
       -0.24017611 0.018417828 0.17912185 -0.06122365
000110 b9 4b 9b bd 55 1a 2f bd dc de c4 bd 1e 7f 78 bd
       -0.07582802 -0.04274972 -0.096128196 -0.060668103
000120 f3 b5 49 bd 2a 58 42 3c 1c 73 ea 3d ad 13 7f 3d
       -0.049245786 0.01186184 0.114477366 0.062274624
000130 44 52 45 3e 10 0e 11 bd 36 8a 45 bd f1 ec 4e be
       0.19269663 -0.0354138 -0.04822751 -0.20207573
000140 0c 76 41 3d 02 f3 04 bd 60 9c e5 3b 03 e7 80 3d
       0.04723172 -0.032458313 0.0070071667 0.06294062
000150 d0 94 16 3e 33 0a c9 3d f6 ca a4 3d 95 78 7d bd
       0.14705205 0.098163985 0.08046524 -0.061882574
000160 33 68 9e bd b6 34 eb bd 2b dc aa bb ab d5 0a 3e
       -0.07734718 -0.11484663 -0.0052142343 0.1355807
000170 b0 7f 27 be ae 06 01 be 90 0d a8 bc ad 2e 23 3e
       -0.16357303 -0.12600204 -0.02051428 0.15935774
000180 f8 4e ce bb 6a 6e 7e 3c b1 19 29 3d ca ed da bd
       -0.006296035 0.015529254 0.041284267 -0.10689886
000190 45 8c 8c 3d 39 62 11 3d 87 33 71 3b 0a 80 a4 3c
       0.06862692 0.035494063 0.0036804394 0.020080585
0001a0 e5 ad 13 3e 2b 27 98 3d ab 18 5b bd 60 1a 65 bd
       0.14421804 0.07429346 -0.053490322 -0.055933356
0001b0 55 48 35 3d 16 12 87 bd a9 b3 21 bd 04 b3 1c bc
       0.044258434 -0.065952465 -0.039477978 -0.009564165
0001c0 19 c7 bb 3c 1d 61 25 3e 63 de b1 3d 4e 31 0c 3d
       0.022922086 0.16150327 0.08684995 0.034226708
0001d0 b0 ae 55 be 7e f3 f0 bd a0 56 42 3d d4 2d 5e 3c
       -0.20867419 -0.117651924 0.047445893 0.013560731
0001e0 11 b9 c7 bd 1c 37 8c 3d 1f 94 cd bd 0b b5 51 3d
       -0.097520955 0.06846449 -0.100380175 0.051198047
0001f0 23 09 56 bd 28 b2 1b bd bd 32 0b 3e 1b 18 0c bd
       -0.052254807 -0.0380117 0.13593574 -0.034202676
000200 51 2f 35 bc b7 ad 29 be 35 e1 bb 3d 08 1a 7a 3d
       -0.011058644 -0.16570173 0.09173814 0.06105998
000210 39 f4 2e be c9 96 71 3e 94 49 89 3c a7 46 f7 3d
       -0.17085351 0.23592676 0.016758718 0.12074023
000220 60 79 95 bd b0 24 97 be 8d 43 85 3e 0b 69 62 be
       -0.07298541 -0.29520178 0.260281 -0.22110383
000230 1c fe a2 bd 81 69 5a bd 4c 83 74 3e 5e f1 b5 3d
       -0.07958624 -0.053323273 0.23878211 0.08883928
000240 71 73 ff bd b8 cd 80 3d 90 79 3d 3e a8 e4 3d 3d
       -0.124731906 0.06289238 0.18503404 0.04636064
000250 55 f1 03 bd af 61 f6 bd 92 34 92 bc c3 4a 13 3e
       -0.032212574 -0.120303504 -0.017847333 0.14383988
000260 2a be a2 be 8e ca bb bb 2c ee 9b bc 4a 66 b5 be
       -0.3178571 -0.0057309335 -0.019034468 -0.35429603
000270 4a 7c 97 3d 8c 20 c1 bd a8 0f 49 3e 00 1e 16 3d
       0.07396753 -0.09430036 0.19634879 0.036649704
000280 2c b0 1c 3e b0 14 a3 3d de ef e1 3d 18 98 01 be
       0.15301579 0.0796293 0.11032079 -0.12655675
000290 2d b6 52 bd 47 97 c4 bd a4 ed 12 bc 7c 08 7e 3d
       -0.051443268 -0.09599166 -0.008967791 0.06201981
0002a0 bf 1a 5b be 83 f4 21 be 68 31 38 be 1d cf 2e 3e
       -0.21396922 -0.1581593 -0.17987597 0.17071195
0002b0 3f ce 81 be 2a b0 3e be 0c e7 2f 3e a1 69 38 bc
       -0.25352666 -0.18621889 0.17177981 -0.011255653
0002c0 58 52 6e 3c 86 a2 99 bd a3 52 32 3e 6d e4 4b 3e
       0.0145459995 -0.07501702 0.17414336 0.19911356
0002d0 b6 73 fe bd 50 7a 8d bd 2d 06 80 3e 1c 78 a8 3d
       -0.12424414 -0.06908095 0.25004712 0.08226034
0002e0 f6 2e 29 be 0f c6 66 be 54 c5 79 3d 40 4e 2c bc
       -0.1652182 -0.22536491 0.060979202 -0.010516703
0002f0 10 c3 13 3e 5d c6 bd 3d 67 2e fd bd b8 6f db bc
       0.14429879 0.092663504 -0.12362366 -0.02678667
000300 d8 63 87 bd 0d 92 59 bc 4b fb 43 bd 66 4a 50 be
       -0.066108406 -0.01327945 -0.047847074 -0.20340881
000310 09 23 94 bd 66 ce af 3d 58 55 07 3d 71 5e 1c bd
       -0.07233245 0.08584289 0.033040375 -0.038176004
000320 d6 ad 7f 3c 9e 84 0a 3e 84 9d eb 3c 00 e1 95 bd
       0.015605411 0.13527152 0.028761633 -0.07318306
000330 3e c9 ca 3d 11 6b ad 3d f0 05 82 bd a8 2b 95 bd
       0.09901665 0.08467687 -0.06348789 -0.072837174
000340 84 f1 2d 3a 1c 39 41 3b a7 c2 94 bd 23 78 5e 3d
       0.0006635415 0.0029483503 -0.072636895 0.05431379
000350 a3 98 92 bb c0 ad 9b bd 76 68 72 3d 5f 77 c5 be
       -0.004473762 -0.076014996 0.059181653 -0.38567635
000360 c0 bc 00 bd 80 7c 8b 3a 7f b3 a4 be 69 67 29 be
       -0.031430006 0.0010641962 -0.32168195 -0.16543354
000370 b8 7b 3d 3d e5 84 d4 bc 0e 75 fe 3c e0 5a e5 3b
       0.046260566 -0.025942275 0.031061675 0.0069993585
000380 02 79 74 3e 8c fa 1d 3d ec 38 38 3d 01 2a ef 3c
       0.23874286 0.03856902 0.04497616 0.029194834
000390 58 94 43 bd 6d d5 41 3e 82 97 80 3d a3 fb 17 3d
       -0.047748893 0.18929072 0.06278898 0.037105214
0003a0 ba 63 8c 3d 4b 24 3f 3d 90 d9 69 3d 96 d9 15 be
       0.06854959 0.04666547 0.05709225 -0.14633784
0003b0 fc 4e fc 3d dc ca d3 bd 48 80 ca bc 5a d5 cb bb
       0.123197526 -0.10341427 -0.024719372 -0.006220502
0003c0 40 88 83 3c 95 e0 3b bd 59 3f 14 be fe 41 2c 3d
       0.01605618 -0.045868475 -0.1447729 0.042055123
0003d0 75 22 5d bd 48 8c ee 3c 67 a1 d3 bd ba 27 bf bb
       -0.05398794 0.029119626 -0.103335194 -0.005833593
0003e0 95 b1 76 bd c6 40 f5 3b c0 20 6e bd c7 52 5b bd
       -0.06022795 0.0074845282 -0.0581367 -0.05354574
0003f0 44 11 87 bd ee 58 66 3d 3c d3 5a 3c 68 72 de 3c
       -0.0659509 0.056237154 0.013356026 0.027154163

fc2.bias f4 [84]
000000 02 6b 1a 3e b9 49 17 3d c0 c5 fe bd 42 c2 d3 3e
       0.15079883 0.03693554 -0.124400616 0.41359144
000010 ff 46 4e bd d7 18 c8 3e b8 11 83 3e b3 b2 8b be
       -0.050360676 0.3908145 0.25599456 -0.27284774
000020 16 18 60 3d d9 87 10 3e 58 d6 5c 3e 16 69 5f bd
       0.05471047 0.14114322 0.2156614 -0.054543577
000030 ca aa 98 3e 66 23 1e be 27 9c 7a bd 5d d9 6e bd
       0.29817802 -0.15443191 -0.061184075 -0.058312763
000040 3a e6 01 bd 70 d9 07 be 7e 34 00 be 7f ad c4 3e
       -0.0317137 -0.1326654 -0.12520024 0.38413617
000050 14 24 90 3a 08 88 81 bb 11 fd 37 3e 07 ed 16 3d
       0.001099708 -0.0039529838 0.17967631 0.03684714
000060 8f 73 27 3e 76 ae a2 3e 5d 36 a2 3e 9d 8b 18 3e
       0.16352676 0.31773728 0.316821 0.14897008
000070 06 3c 3a be a3 4d 45 3d 89 56 c3 3e 60 25 7c 3e
       -0.1818696 0.048169743 0.3815196 0.24623632
000080 a9 7c 9e 3e 2c 5c 1e 3e 08 6c a0 be 2e e2 b1 ba
       0.30954483 0.15464848 -0.3133242 -0.0013571435
000090 4e 76 b0 3d 7c f7 2d be 85 70 80 3e 91 b7 17 3f
       0.08616315 -0.16988939 0.25085846 0.59264475
0000a0 c1 bb 86 bc 34 07 4c bd 14 3c 9a bd d5 58 c9 3d
       -0.01644695 -0.049811557 -0.0753099 0.098313965
0000b0 70 93 31 bd 65 48 d5 bc 79 cf e4 3d 57 e8 f5 bd
       -0.043353498 -0.026035497 0.11172385 -0.12007206
0000c0 8b 7a 53 bd db 08 72 3e 0f e5 c0 3d 3a 0c 75 3e
       -0.051630538 0.2363619 0.094186895 0.23930445
0000d0 36 47 de ba 1c 88 5c bd 54 d0 fa 3d 23 b7 fb 3e
       -0.0016958478 -0.05384074 0.12246767 0.4916316
0000e0 67 06 a8 bd 33 26 06 be 2a 4c a1 bc 82 54 aa bd
       -0.08204346 -0.1310051 -0.019689638 -0.083169
0000f0 9c db 00 3e 63 07 0f be f7 11 b0 bc f9 21 05 be
       0.12583774 -0.13967662 -0.021492941 -0.13001241
000100 61 a9 6c 3e 5b ad c6 bd 15 f8 98 3d c0 30 53 bd
       0.23111488 -0.09701034 0.07469193 -0.051560163
000110 ce 93 23 bc 71 2c bb 3e 04 e5 a4 3d 83 3f d3 3d
       -0.00998397 0.36557344 0.08051494 0.10314848
000120 b4 9e a0 3e 60 5a 1a be 16 db d7 3b e5 ae 8a bc
       0.3137108 -0.15073538 0.0065873964 -0.0169291
000130 86 09 84 3e 30 dc 51 bd fc af c7 ba ae 1b 82 be
       0.25788516 -0.051235378 -0.0015234943 -0.25411743
000140 66 4f 28 3e e4 30 ef 3c 90 a6 1a 3e d0 64 26 3e
       0.16436538 0.029198118 0.15102601 0.16249394

fc3.weight f4 [10, 84]
000000 31 e1 e8 bd 00 a8 0b be d0 31 c8 bd c3 98 a3 bd
       -0.11371077 -0.13638306 -0.09775126 -0.07988121
000010 7d bc 3e bc c7 52 df 3d 4b 91 70 bc 4b 63 33 3e
       -0.011641619 0.109044604 -0.014683078 0.17518346
000020 0e f6 1c 3e 8e 90 75 3d 25 ed 35 be 0a 02 a9 bd
       0.15328237 0.05995231 -0.17766245 -0.08252342
000030 78 b9 0f 3d be 52 68 3d a8 55 7c bd 6c 1b 2d 3e
       0.035088986 0.056719534 -0.061605126 0.16904992
000040 7b c4 1c bd cf 22 c7 bb ec 07 b1 3c 07 b3 a6 be
       -0.038273316 -0.0060771476 0.021610223 -0.32558462
000050 60 ff c4 3b e6 0a eb 3d 62 6e b7 bd df a7 e5 3d
       0.0060118884 0.11476688 -0.08956601 0.112136595
000060 3e 58 5f be 79 63 86 be b3 2a 5e bd e6 7f 8e bd
       -0.21811005 -0.26247767 -0.05423994 -0.069579884
000070 c9 b2 f9 3d 1b ed 18 3e 55 0d 09 bf 5a 2a 50 bd
       0.12192304 0.14934199 -0.5353597 -0.05082164
000080 52 eb 2b bd 06 0a 40 3c ff cf 1d 3e d1 c6 29 bd
       -0.041972466 0.01172114 0.15411375 -0.04144937
000090 ee 15 5f 3e 81 3d 92 3c ff da 03 be b3 91 c0 bd
       0.2178571 0.017851593 -0.12876509 -0.0940279
0000a0 58 2f ae 3d 36 4a 25 3e 1b da 92 be 71 04 c6 3d
       0.08505124 0.1614159 -0.28682026 0.09668816
0000b0 51 8a 1a 3d 16 90 8d 3c 4f 08 f9 bd 27 76 bf 3d
       0.037729565 0.01728062 -0.12159788 0.09348708
0000c0 3f cb c9 3d 87 72 aa 3d 24 4e cd bd 99 01 2d 3e
       0.09853219 0.083226256 -0.1002467 0.1689514
0000d0 6c 74 5f bd 9b 8c bc bc ef 9f e8 3d 10 41 fd bd
       -0.054554388 -0.023016265 0.1135863 -0.12365925
0000e0 92 43 73 bd 19 ba a1 bd 73 a7 10 be f1 38 c2 bc
       -0.059390612 -0.078968234 -0.14126377 -0.023708792
0000f0 08 a8 a9 3d 7a f3 92 3c 43 fe 01 be 66 70 cb bd
       0.082840025 0.017938364 -0.1269465 -0.09933548
000100 aa 0e a9 bd c3 6e 05 be f1 ff 46 be c5 80 f0 bc
       -0.0825475 -0.13030533 -0.19433571 -0.029358277
000110 e5 67 74 3d 0f 5a 7c 3d 69 4d ac bc 7a 51 e7 3c
       0.059669394 0.061609324 -0.021033006 0.028237093
000120 31 ce 26 3e bb e8 98 bd a6 52 c7 be b9 d6 29 3e
       0.16289593 -0.07466265 -0.38930243 0.16585816
000130 12 59 97 be 97 bd 77 bd ff 9f 7c 3e 57 6a 6f 3e
       -0.29560143 -0.06048354 0.24670409 0.23380409
000140 51 a1 55 be 75 0a 0c 3d 6d 66 05 3e e1 ba 38 3e
       -0.20862319 0.03418966 0.13027354 0.18040039
000150 a4 65 88 be 09 75 e9 bd 29 b0 34 3d 51 f2 9c 3d
       -0.26640046 -0.11399276 0.044113312 0.07663406
000160 4f 61 6f be 0f b5 c5 3b 20 38 17 3d c4 85 6c bd
       -0.23376964 0.0060335468 0.03691876 -0.057744756
000170 95 b6 71 bd 1f a8 48 be 9a 56 7b 3e cd 58 f4 ba
       -0.059012014 -0.19595383 0.24544755 -0.0018642187
000180 ae 25 06 be 95 64 ee bd a5 25 1a be ad d4 9a bd
       -0.13100311 -0.11640278 -0.15053423 -0.07560096
000190 fa ff ac 3e 0a 29 c3 3d 79 26 dc bc c8 43 a3 be
       0.33789045 0.09529312 -0.026873814 -0.3188765
0001a0 0c 68 bb bd 53 14 9e 3d 19 9f 66 3e 26 8c 4c 3b
       -0.09150705 0.0771872 0.22521628 0.0031211465
0001b0 c8 00 96 3d 58 8c e0 bd 25 02 48 be 55 aa 99 be
       0.07324368 -0.109642684 -0.19532068 -0.30012766
0001c0 e3 5b 42 bd b2 03 89 3d c5 57 4a 3d a5 23 9d be
       -0.04745091 0.06690158 0.04940011 -0.30691257
0001d0 78 4e 65 3e 15 64 2b 3e 7f 6a 0f 3e 62 bc 53 3d
       0.22393215 0.16737397 0.14005469 0.051693328
0001e0 09 9e c0 bd 7a e4 07 3e 8c 1f c2 3d 37 e1 2d be
       -0.09405143 0.1327075 0.09478673 -0.16980444
0001f0 16 77 72 3e 1a 9e 1e 3e 96 ba f5 bc c7 7c 69 3d
       0.2367824 0.15489998 -0.029996198 0.057003763
000200 91 9c ba bd b1 c1 00 bd 21 aa 50 bd 72 a1 22 be
       -0.09111894 -0.03143472 -0.050943498 -0.15881899
000210 8b 3c 3e be d4 68 a7 3d 45 77 21 3e 2c 97 a7 be
       -0.18577783 0.08174291 0.15768154 -0.32732522
000220 2f 93 2d be 9b 61 e8 3d 98 8b 24 3e 48 87 cc bc
       -0.16950677 0.11346742 0.16068876 -0.02496685
000230 2e d2 0e be 0f 31 99 bd d8 b8 ae 3d d8 8b 62 bd
       -0.13947365 -0.0748006 0.0853135 -0.055309147
000240 2b 19 b1 3c a1 1a 4b 3d ac a3 f1 bc e2 3a 05 be
       0.021618446 0.049585942 -0.02949699 -0.13010743
000250 84 83 93 be c1 84 15 be c0 b5 e5 3d 8d 75 02 3e
       -0.28811276 -0.14601423 0.11216307 0.12740155
000260 64 e0 b7 3d 47 1f 21 be 55 d3 20 be 17 48 78 3d
       0.08978346 -0.15734588 -0.15705617 0.060615625
000270 37 9b 0d be e8 f2 69 bd 7a 6c 05 be d8 89 97 bd
       -0.13828741 -0.05711642 -0.13029662 -0.073993385
000280 0b 0b cc 3d be 65 29 be 8c 62 3f be cf bf 25 be
       0.09963044 -0.16542718 -0.18689936 -0.1618645
000290 78 fe 91 be 2a d1 92 bd 27 56 62 3c 97 af 35 3e
       -0.28514457 -0.07168801 0.013814486 0.17742763
0002a0 39 bf 26 3a 84 3b 38 3d aa 9d 81 bd 03 26 7f bc
       0.0006360892 0.044978634 -0.063289 -0.015573028
0002b0 74 4c de 3d d2 4f 15 be 3e 11 e9 bc 27 6f fc 3d
       0.10854426 -0.1458123 -0.028450605 0.12325888
0002c0 b3 8b fb 3d 53 a6 ca 3c c1 a4 c5 3e e6 b1 78 bd
       0.12282505 0.024737513 0.3860226 -0.060716532
0002d0 7f de 0d 3d bd 0d 01 be 74 7e fd 3d 91 af df 3d
       0.034636017 -0.12602897 0.12377635 0.109221585
0002e0 fc ce 41 be 18 44 44 3d 90 02 05 3d 57 f0 8d bd
       -0.18926615 0.0479165 0.032473147 -0.06930607
0002f0 b9 fb 14 be 68 39 c6 3c 61 8e 63 be a9 0f 59 3e
       -0.1454915 0.024197295 -0.22222282 0.2119738
000300 7f bb 84 be 8c 29 23 3e 5b 26 2c be 0e 10 4e 3d
       -0.25924298 0.15933818 -0.16811506 0.05030828
000310 d0 25 54 be a5 e4 a3 bd 67 52 52 3d 59 9c 59 3d
       -0.2071755 -0.08002595 0.051348116 0.05312762
000320 7b 19 88 be 99 76 07 b9 63 4c f9 bd b8 46 1d be
       -0.2658194 -0.00012918784 -0.12172773 -0.15359008
000330 b4 b9 8c be 98 fb 34 bd 1b d8 2e bd 4c 10 88 bc
       -0.2748543 -0.04418525 -0.042686563 -0.016609333
000340 25 e4 04 be cc 3c f3 bb 6b ee ac 3e d0 3b c7 bd
       -0.12977655 -0.007423019 0.33775648 -0.09728205
000350 c9 00 88 bd 7e 1b de bd bf 76 81 3d db 15 35 bd
       -0.06640775 -0.108450875 0.06321477 -0.044210296
000360 2c a5 41 3e 63 3e 5a be 33 3c 80 bd c1 48 31 bd
       0.18910664 -0.21312861 -0.06261482 -0.043282274
000370 ea f5 20 3d c0 fe 35 3e 22 85 e0 bc 4f d5 2d bd
       0.039297022 0.1777296 -0.027407233 -0.042439755
000380 ed ef 00 3c 83 f2 06 bc 04 00 31 3e a8 30 b1 3c
       0.007869703 -0.00823653 0.17285162 0.021629646
000390 27 9b 21 3b fa e3 0c 3d 0b b7 fb 3d 8a 2b 9c bd
       0.0024659128 0.034397103 0.12290772 -0.07625492
0003a0 c0 7d 0b 3e ae 72 d0 3d 36 c1 41 be 70 d0 83 be
       0.13622189 0.101781234 -0.1892136 -0.25744963
0003b0 12 49 f6 bd 3d 01 60 bd c4 0a 9c be 74 d7 07 3e
       -0.12025656 -0.05468868 -0.30476964 0.13265783
0003c0 8e a2 01 3c 61 ac 38 bd 59 e3 4c 3d 9e 3c dc 3d
       0.007912291 -0.04508627 0.050021503 0.10753749
0003d0 0c a3 b7 3d 8d 62 56 bd 46 97 1a 3e 0d 25 38 3e
       0.089666456 -0.05234008 0.15096769 0.17982884
0003e0 54 f1 30 3d 0c c0 3f 3d bb c9 79 3e 0f 02 51 be
       0.0431989 0.04681401 0.2439336 -0.20410942
0003f0 8c 20 e5 3d 1f 0e 7f bd 54 36 6e bd e1 c3 13 bd
       0.111878484 -0.062269326 -0.05815728 -0.036075477

fc3.bias f4 [10]
000000 98 ea 8f be a4 21 f5 bd 49 8f d2 bd 9e 2e b3 3d
       -0.28108668 -0.11969307 -0.10281236 0.08749126
000010 47 48 cd 3e d1 ca 37 be d8 dc 94 3e bb 28 a0 be
       0.40094206 -0.17948462 0.2907474 -0.31281075
000020 3e 1a ad 3d 9e 1e 1b be
       0.08452271 -0.15148398
