models/PGD_20_epochs2.pth (torch, 251227 bytes, 10 tensors)

conv1.weight f4 [6, 3, 5, 5]
000000 ab 46 f7 3c b0 6c db 3c 49 7a 07 3d 5a 87 7c bc
       0.030185064 0.026785225 0.033075605 -0.01541313
000010 9b 26 ef ba 82 0b f8 3c 1b 5e 99 3d 63 ee e2 3d
       -0.0018245758 0.030278925 0.07488652 0.11080625
000020 e1 64 3f 3d 14 05 67 bb cc 23 6f 3c 6e 9f 76 3d
       0.046727065 -0.003525083 0.014595937 0.060210638
000030 ac a4 cb 3d 17 13 bd 3d 48 cb 06 3d 08 06 79 3a
       0.09943518 0.09232157 0.032908708 0.0009499495
000040 cb 0d 76 3d aa ec c8 3d fa 1a b2 3d 67 b6 81 3d
       0.060071748 0.09810765 0.086965516 0.063336186
000050 c9 58 69 3c 29 01 a8 3c c9 3f 89 3d fc cd 6b 3d
       0.014242359 0.020508366 0.06701619 0.05756949
000060 88 86 70 3d 0c d7 ca 3d 85 56 d2 3d a7 14 5e 3d
       0.05872205 0.09904298 0.102704085 0.054218914
000070 e8 4f ae 3c 20 b7 98 3c 77 b3 bb 3d e0 c7 e2 3d
       0.021278337 0.018642008 0.091650896 0.110732794
000080 0f e5 af 3d e2 1e 81 3d 3c 88 d0 3c 5e 46 2a 3c
       0.08588611 0.063047186 0.025455587 0.010392753
000090 f4 1a 95 3d 84 92 b1 3d c0 f9 7b 3d 9e 18 ec 3c
       0.072805315 0.08670524 0.061517477 0.028820332
0000a0 d4 25 c8 ba e0 a0 f4 3c a6 08 65 3d f1 4d 01 3d
       -0.0015270063 0.029861867 0.05591645 0.03156847
0000b0 9a dc 56 3c 48 e0 b4 bc 75 14 13 bb 6f 20 1e 3d
       0.013114119 -0.022079602 -0.0022442613 0.03860515
0000c0 89 ec 84 3c 3e e3 54 bc a0 8a 40 3d 5d 27 76 3d
       0.01622607 -0.012993632 0.047007203 0.060096134
0000d0 55 bb 50 3d 8a 27 bf 3c bc cc 66 bc af 3a 29 3c
       0.050959904 0.023334283 -0.014086898 0.010328933
0000e0 d0 30 94 3d a0 15 9a 3d 9f 2b e5 3c f7 43 ac 3a
       0.07235873 0.07523656 0.027974902 0.0013142814
0000f0 0d 23 5d bd a9 3f a7 3c f4 17 80 3d f2 d2 c8 b9
       -0.053988505 0.020416098 0.06254569 -0.0003830414
000100 10 43 02 bd 74 6e 5d bd fd 1f 87 bd fd ba cf bc
       -0.031802237 -0.054060414 -0.06597898 -0.025357718
000110 fa ef 19 bd cd 2a 32 bd e7 6f 61 bd d0 58 78 bd
       -0.037582375 -0.04349785 -0.05503836 -0.060631573
000120 71 08 25 bd 7d bd 3b bd ad d5 91 bd da ef e4 bc
       -0.040291253 -0.045835007 -0.071208335 -0.027946401
000130 e1 8e a4 bd 43 23 81 bd cb b0 a2 bd 56 ef 3d bb
       -0.080350645 -0.06305554 -0.07943877 -0.0028981767
000140 12 19 23 bd bb d5 ff bd 6c fb 05 be e2 4f fb bd
       -0.03981883 -0.12491938 -0.13084191 -0.12271096
000150 f7 65 7d bd 11 35 ba bd 50 d1 83 bd ac 34 be bd
       -0.06186482 -0.09092153 -0.064364076 -0.0928739
000160 14 3b 08 bd 67 29 25 bd 78 c5 ea bd ad bc 95 bc
       -0.033259466 -0.040322687 -0.114634454 -0.018278444
000170 3f f1 80 3c 78 05 ab bc ec 2e bc bc 16 bc e4 bc
       0.015740035 -0.020876631 -0.022971593 -0.027921718
000180 f1 47 26 bd 08 a5 16 bd a5 3e 08 bd 37 51 6e bd
       -0.040595952 -0.03677848 -0.033262867 -0.05818292
000190 12 46 ab bd 3c b6 39 bd cc 70 06 3c cf 54 2e 39
       -0.08362974 -0.045339808 0.008205604 0.00016625527
0001a0 a3 8e ef bc 97 7b ab bd f6 19 7e 3b e4 fb 1d bc
       -0.02924282 -0.08373182 0.0038772798 -0.009642575
0001b0 22 cc 0e bd a3 89 7c bd f9 19 f7 bc 08 75 af bb
       -0.034862645 -0.061654698 -0.030163752 -0.0053545274
0001c0 dd b0 8c 3d e5 64 1d 3c 82 0e 16 bd 3c b3 d3 3c
       0.068696715 0.009606575 -0.03663493 0.025842302
0001d0 62 99 24 bd eb ca 9c 3b bb 17 14 3c 56 d1 37 3c
       -0.04018534 0.004784932 0.009038861 0.011219343
0001e0 00 47 1f bd 95 b6 ae 3c 28 f7 49 bd d2 df 1f bd
       -0.03888607 0.021327296 -0.049307972 -0.03903181
0001f0 d0 42 9b 3c 0f 29 5e 3d 0a 5f 0d 3e 5d 34 8b 3d
       0.018952757 0.054238375 0.13805786 0.06797097
000200 10 c8 0f 3e 9b 06 9f 3d 98 3e 9a 3c 39 52 8a 3d
       0.14041162 0.07764932 0.018828675 0.06753964
000210 c2 15 48 3e 3f 42 27 3e a9 5f b9 3d 4c 64 ea 3d
       0.1953955 0.16333865 0.09051449 0.11444911
000220 5d cf 48 3e 9c a0 ec 3d 80 61 22 3e b9 79 f9 3d
       0.19610353 0.11554071 0.15857506 0.1218142
000230 a8 5c 1f 3e d6 f9 24 3e 4a f5 34 3e 46 df 22 3e
       0.1556269 0.1611093 0.17671695 0.15905485
000240 e1 18 c9 3d 2e 5c 3c 3b 93 b4 6a 3d e4 49 2f 3e
       0.098191984 0.0028741467 0.057301115 0.17118031
000250 df 40 31 3e c2 30 a1 3d 7f 0a 16 3d 3f 4f 9c 3d
       0.17309903 0.07870628 0.036631104 0.076323025
000260 11 d0 a4 bc 3b e2 c0 3c 90 90 6a 3d 59 dc 89 3d
       -0.020118745 0.023545375 0.05726677 0.06731481
000270 0e e3 4b 3d 1e de 57 bd 39 ba 92 ba 09 36 1c 3e
       0.049777083 -0.05270206 -0.0011194415 0.15254988
000280 b3 73 10 3e 29 5b 28 3d a1 ba 47 be 27 c3 c0 3c
       0.14106636 0.041102562 -0.19504787 0.023530556
000290 6f 53 3f 3e 53 04 9a 3d d3 1c 34 3d 54 b2 86 be
       0.18684171 0.07520356 0.0439728 -0.2630793
0002a0 7e ab 2c 3b 02 ab 7c 3e 74 02 1d 3d 11 bb a5 3c
       0.0026347334 0.2467461 0.038332418 0.020230802
0002b0 31 2c 64 be 49 e0 12 bc 68 90 1d 3e 88 70 6e bc
       -0.22282483 -0.008964607 0.15387118 -0.014553197
0002c0 ff de 42 bd 6e 87 22 be 72 88 84 bd 35 f0 00 3d
       -0.047575947 -0.15871975 -0.064713374 0.03147908
0002d0 f8 85 17 3d 9f ef a2 bc e1 22 73 be a6 6c 4e bd
       0.036992997 -0.01988965 -0.23743774 -0.050396584
0002e0 1a 9b 86 3d 11 58 67 3d b1 af d0 bb bd 27 c9 be
       0.06572552 0.05648047 -0.0063686003 -0.3928813
0002f0 10 25 02 bd f4 be 28 3e 6f ee a2 3d ec d1 d4 3c
       -0.031773627 0.16479093 0.07955634 0.025979005
000300 eb b3 b7 be a6 a0 22 bc 4f f3 24 3e 76 5b 4b 3d
       -0.35879454 -0.009925997 0.1610844 0.04964777
000310 99 f6 f9 b9 39 cc 96 be a0 13 b1 bc 22 57 04 3e
       -0.0004767671 -0.29452685 -0.021615803 0.12923864
000320 82 82 89 3b 9b cd 17 3c bf 57 39 bd df 83 b8 bb
       0.004196466 0.009265329 -0.045249697 -0.0056309546
000330 73 fe 3f 3d 9b 28 15 3d 60 ed d9 3b 8b 58 1b be
       0.04687352 0.036415678 0.0066506118 -0.15170495
000340 06 8a 14 bc a5 a4 e3 3d 71 71 7f 3d b6 1c a5 3c
       -0.0090661105 0.11115388 0.062364046 0.020155292
000350 93 07 73 be 64 f8 e4 bb 70 dc 04 3e 2f 73 d1 3d
       -0.23733358 -0.0069876183 0.12974715 0.10227048
000360 cd bc 23 3d 5f aa 8a be 75 9e 7f 39 33 05 32 3e
       0.039974976 -0.27083108 0.00024377725 0.17384796
000370 ca 61 f5 3c f3 be c0 3c 30 28 47 be d3 44 dd bb
       0.029953856 0.023528552 -0.19448924 -0.0067525893
000380 33 5c 1d 3e 0d 3f e0 3c b0 33 70 bc a7 43 27 bd
       0.15367202 0.027373815 -0.014660761 -0.040836003
000390 a6 24 37 bc 0f 8c 60 3c 4f 1f 31 3e a3 36 d5 3d
       -0.011178171 0.013705268 0.172971 0.10410812
0003a0 d6 c1 b9 bd 53 70 3e be bd df 6d bd 22 84 81 3e
       -0.090701744 -0.18597536 -0.0580747 0.25296122
0003b0 f1 2e 20 3e 1b 45 1a bd a2 d6 6c be 01 04 2f be
       0.15642907 -0.03766356 -0.23128751 -0.17091371
0003c0 10 18 3b 3e ac 5e 23 3e e9 6a 06 3d 90 48 08 be
       0.18270898 0.15954083 0.0328168 -0.1330893
0003d0 6c 19 43 be 27 63 f5 3c 40 00 54 3d 52 9b 8e 3d
       -0.19052666 0.029954506 0.05175805 0.06963219
0003e0 d8 be 94 3c 54 95 f8 bc 41 37 86 3b 27 2b ac bc
       0.018157408 -0.030344643 0.0040959422 -0.02101667
0003f0 22 7c 3e bd fb e8 7f b8 9e b0 3d 3d 5d 7d 11 3e
       -0.0465051 -6.1013718e-05 0.046311013 0.14207979

conv1.bias f4 [6]
000000 34 6f 74 be bb e9 2f be cb 47 b0 3c 31 1e 87 bc
       -0.23870546 -0.17179005 0.021518609 -0.016493889
000010 64 6e 54 be bf 69 2c bd
       -0.20745236 -0.042093035

conv2.weight f4 [16, 6, 5, 5]
000000 df 6e ec bd 91 89 a3 bd 06 9a ee bc f7 62 b0 bd
       -0.115445845 -0.07985223 -0.029126178 -0.08612626
000010 bb 55 88 3d a3 d0 90 bc 49 7d 0e 3d c6 da c2 3c
       0.06656977 -0.01767761 0.03478745 0.02378596
000020 38 1f bf 3d 05 d9 9d 3d 99 08 0a be 7b ae 9e 3c
       0.093321264 0.07707409 -0.13479842 0.019370308
000030 57 ff 5c 3c 06 6f f4 3d d9 dd 45 3e 11 0c 2f be
       0.013488612 0.119352385 0.1932291 -0.17094447
000040 dc b2 f0 bc 5d b0 1c 3e 6e 25 43 3d b5 89 1e 3e
       -0.029382162 0.15301652 0.047643118 0.15482219
000050 6c 67 a9 bd ee b0 c4 bd 62 d6 f1 3d 33 a3 48 3e
       -0.08271679 -0.09604059 0.118084684 0.19593506
000060 2e a6 76 3e 45 a6 af 3a 52 07 d8 bc 29 bd 86 bd
       0.2408683 0.0013400993 -0.026370678 -0.06579048
000070 61 ca c6 bd 47 e5 39 be a2 d2 6d 3d ab b5 34 bd
       -0.097065695 -0.18153869 0.058062203 -0.044118565
000080 49 37 8a bd 83 67 f2 39 86 72 23 be 73 74 66 3d
       -0.06748826 0.0004623496 -0.15961656 0.0562634
000090 50 a1 8d 3a 05 fc 70 bd 81 da 67 3c 6e ee 38 be
       0.0010805521 -0.058834095 0.0141512165 -0.18059704
0000a0 2b d4 05 3e ab 47 e7 3c 5c 83 40 3d 95 83 6d 3d
       0.13069217 0.028232416 0.047000274 0.057986815
0000b0 c9 1f d2 bd db 14 c3 bc be 22 27 bd 20 09 2b bd
       -0.10259969 -0.023813656 -0.040804617 -0.04175675
0000c0 2b 6e bf bd 65 49 29 be 0d e7 65 bd 88 2f 01 3e
       -0.09347185 -0.16531904 -0.05612855 0.12615788
0000d0 d0 b1 b7 3d 0a 64 ee 3c 35 38 2b 3d 99 5c 76 3e
       0.08969462 0.029100437 0.04180165 0.2405876
0000e0 ee da 3e be 67 07 5b 3e 79 91 84 3d 44 86 5e 3d
       -0.18638203 0.21389543 0.06473059 0.054327264
0000f0 c2 77 a7 3e 7b 2b 03 bd e9 c9 56 bd db 5b 9c 3c
       0.32708555 -0.032023888 -0.05243865 0.019086769
000100 8d 1c 83 3d 90 72 9d 3d 7e 04 53 3e 99 00 0f 3d
       0.0640193 0.07687867 0.20607182 0.03491268
000110 c3 da fe bd 93 20 88 3b 25 2e e1 3d 0b ac 1a 3d
       -0.12444069 0.004154274 0.109951295 0.03776173
000120 a7 bc b5 3d c0 15 59 3d c4 44 a9 ba ab f3 c8 bb
       0.08873873 0.052999258 -0.001291417 -0.006132563
000130 66 e2 97 3d 48 e3 9b bd 73 87 8d 3d 6b 6d 9d bd
       0.07416229 -0.0761171 0.069106005 -0.076868854
000140 3e 26 4e be 77 98 20 3e e9 19 6d 3d 7c 2b 22 bd
       -0.20131776 0.1568316 0.057886038 -0.03959225
000150 98 5f 1a bc 7c c8 6e bd d2 fe 80 be 17 70 77 3e
       -0.009422205 -0.058296666 -0.25194412 0.24163853
000160 45 e9 91 3d 4d 9d 28 bd a6 dc cc 3e e1 03 18 be
       0.07124571 -0.04116564 0.4001209 -0.1484523
000170 7a bb f3 bd bd 9e 9c 3d 68 a3 db b8 18 a7 62 3e
       -0.11900993 0.076474644 -0.000104731706 0.22134054
000180 e7 e4 27 3e ea e1 ff 3a 99 d5 62 bd 90 a7 06 be
       0.16395913 0.0019522284 -0.055379484 -0.13149858
000190 3f 5e 3d 3a cf e0 4f bd a9 8a 34 bd 35 4f a8 bd
       0.00072238216 -0.050751504 -0.04407755 -0.082182325
0001a0 d5 3b b3 bc 04 6d 82 bd 9f 1d d8 bd 4f 91 52 bd
       -0.021879116 -0.06368449 -0.10552525 -0.05140811
0001b0 76 90 b0 bd 17 64 75 3b a2 a2 cb bd 7a 13 37 3d
       -0.08621304 0.0037443691 -0.09943129 0.04469631
0001c0 e0 25 86 bc ea cb e3 bd ac 2d 3c 3d 75 28 24 be
       -0.016375482 -0.11122878 0.045941994 -0.16031058
0001d0 a3 d2 5f be a0 81 b1 39 95 d4 55 bd e6 e9 96 3d
       -0.21857695 0.0003385665 -0.052204687 0.07368831
0001e0 0c 9a fd 3c 8e d2 98 bd b2 e6 c4 bc 18 28 ba bd
       0.030957244 -0.07462035 -0.024035785 -0.090896785
0001f0 da 75 0d 3e e1 1b 86 bc 8f f1 8c bc 79 45 2b 3d
       0.13814488 -0.016370716 -0.017205028 0.0418143
000200 15 ab 39 3d 72 31 a3 bb ad 29 a0 3d 08 56 25 be
       0.045329172 -0.0049802596 0.07820449 -0.161461
000210 40 70 e8 bc c4 59 0c 3e ae eb b0 3d 9b b5 2f 3e
       -0.028373837 0.13706118 0.08638702 0.1715912
000220 73 c2 e0 3c 4d 6b 80 be 96 f2 01 be 7f 2f 29 3d
       0.02743647 -0.25081864 -0.12690195 0.04130506
000230 d6 04 8c bd 53 51 87 3e 5f 25 fe 3d f6 77 d9 bd
       -0.0683686 0.26429233 0.12409472 -0.10618584
000240 5a 7c 1f be 53 c1 07 be 5f 38 f3 bd c4 a1 19 3e
       -0.1557478 -0.13257341 -0.11875986 0.15003115
000250 27 22 c1 3d c2 06 bb 3d d0 e4 86 3e e4 eb 17 3e
       0.09430342 0.09132148 0.26346445 0.14836079
000260 2b 99 fb 3d d7 37 40 3d 20 30 1a 3e 45 85 0a 3e
       0.12285074 0.046928253 0.1505742 0.13527401
000270 55 a5 f8 3d 1f ba 8a 3d ef 54 e1 bc 23 40 b2 3d
       0.121409096 0.06773781 -0.02750632 0.08703639
000280 af f4 a9 3c 40 a2 cb 3d 11 2d 12 3c 4b 7c db bc
       0.020746557 0.09943056 0.0089218775 -0.026792666
000290 2d e9 17 3d 60 52 18 3d 31 b2 95 bd 5b b2 53 bd
       0.037087608 0.037187934 -0.07309378 -0.051683765
0002a0 f1 97 c8 bd d4 de 79 bd 1e ba 01 3b 29 ef 0f be
       -0.097946055 -0.06100352 0.0019794772 -0.14056076
0002b0 c1 7e 08 bc 2d 96 d5 bd 6c 7e d9 bd 9a c5 15 3e
       -0.008331002 -0.104290344 -0.10619816 0.1462616
0002c0 bf 6c 9f 3d 45 78 85 3c 7b af 97 bc 7e b4 18 3b
       0.077844135 0.0162927 -0.018516293 0.002330094
0002d0 63 5d f6 3d 96 54 6b 3d e4 5f aa bd f5 f0 37 bc
       0.12029531 0.057453714 -0.08319071 -0.011226882
0002e0 c8 c1 bd 36 79 f0 73 3d 4a 7a b9 bb a7 6c 01 bb
       5.655198e-06 0.059555504 -0.00566033 -0.00197486
0002f0 4f 99 86 bb 64 8b 2d bd 5b 3e 24 3e 95 e2 92 3c
       -0.0041076313 -0.04236926 0.16039412 0.017930308
000300 c5 9c 54 3d d8 0b 5d bc 15 1a 2e 3d 82 07 32 3e
       0.05190732 -0.013491593 0.042505343 0.17385677
000310 93 14 7a 3d 9a b2 e2 3d f4 77 b8 3c 24 29 29 3d
       0.061054777 0.11069222 0.022518136 0.041299
000320 ae 04 ab bd 24 60 80 bd 7a 39 3d bd e0 41 c4 bd
       -0.08350502 -0.06268337 -0.046197392 -0.09582877
000330 76 b1 ee bd 14 7e 66 bd 3d 06 7a bd 3b 59 ab bd
       -0.11654942 -0.05627258 -0.061041106 -0.08366629
000340 e1 62 38 be 2c 7e a6 bd f0 e0 ba 3c fb 38 51 3d
       -0.1800647 -0.08129534 0.022812337 0.05107973
000350 9e 24 c0 bd c8 d4 4b be 1a 70 81 bd 8f 01 80 3d
       -0.09381984 -0.19905388 -0.0632021 0.06250297
000360 bc 03 51 3d be e4 24 be 8d 5b 79 be 5d d0 4e be
       0.051028952 -0.16102883 -0.2435133 -0.20196672
000370 e6 9a 0a 3e 33 00 0f 3d 23 09 f0 bd 2c da 76 be
       0.13535652 0.0349123 -0.11720493 -0.24106663
000380 b2 b9 b6 be b7 07 48 3c b3 43 fd bd 1e db 40 be
       -0.3568855 0.012208871 -0.12366428 -0.18833587
000390 e3 e9 20 be ac 3e 66 be 12 d9 15 3e e9 6d 69 be
       -0.1571422 -0.22484845 0.14633587 -0.22795834
0003a0 1e f6 74 be e8 78 9f be 93 5c a5 be 61 86 8e 3e
       -0.23922011 -0.31146932 -0.3229719 0.27836898
0003b0 7d cc b9 3c 50 d3 30 be 54 b7 a4 be 6d ac 91 be
       0.022680515 -0.1726811 -0.32171118 -0.28451863
0003c0 38 b3 8b 3e ab 05 06 3e 97 9b 05 bd 82 43 4b be
       0.2728517 0.130881 -0.032619085 -0.19849971
0003d0 8b 1a 27 be bf 24 3a 3e 9c 7d 0b 3e 38 66 0f 3d
       -0.16318719 0.1817808 0.13622135 0.035009593
0003e0 8b 70 64 be 68 ab 7c be 99 af 32 be 91 e3 f1 bd
       -0.22308557 -0.24674761 -0.17449798 -0.11810983
0003f0 c7 54 c1 bd f9 fc fd bc 51 14 b3 bd 48 8b 0e be
       -0.09439998 -0.031004416 -0.087441094 -0.13920319

conv2.bias f4 [16]
000000 39 1a 03 3e 20 0d 2e 3e 1c 95 a5 bd d5 ad 1b be
       0.12802972 0.16997194 -0.08085081 -0.1520303
000010 20 f9 c2 3d fa b2 63 3e 59 42 68 be 5e 36 d2 3d
       0.09520173 0.22236243 -0.2268156 0.10264276
000020 32 b3 0a bd 52 9b 5e 3e 69 7a ad be 7e 2b 18 3e
       -0.0338623 0.21738937 -0.33882454 0.14860341
000030 d6 a5 84 3d 20 93 db 3e 09 30 11 3f 33 f2 16 bf
       0.06476943 0.42885685 0.5671392 -0.58963317

fc1.weight f4 [120, 400]
000000 21 11 7d 3d 9a 39 2f bd d8 21 28 bd b6 15 7f 3d
       0.061783914 -0.042779543 -0.0410479 0.062276565
000010 84 af 84 3d 04 6c 02 3e ea d2 10 bd 95 d1 b5 3b
       0.064787894 0.12736517 -0.035357393 0.0055486658
000020 db 95 59 bd 65 a5 a1 bc 44 32 36 3e e7 8f 99 bd
       -0.05312143 -0.019732187 0.17792612 -0.0749815
000030 34 1e 8f 3d c7 9a b7 bb c0 aa c1 bd 2c 29 e0 3d
       0.06988183 -0.0056031677 -0.09456396 0.10945353
000040 a8 e0 15 3d 92 82 da bd 83 c7 26 bd d3 63 42 bd
       0.036591202 -0.106694356 -0.040717613 -0.04745848
000050 f4 05 3a 3d 36 46 11 be 56 bc d3 bd e5 93 44 be
       0.045415834 -0.1418694 -0.103386566 -0.19197042
000060 91 9e 77 be 2e 24 4e bc 62 7f c0 3d 38 43 b2 bb
       -0.24181582 -0.012581868 0.09399296 -0.005440142
000070 28 c4 58 bc 09 8c 2b be f3 12 b2 bd 81 73 2b 3c
       -0.013230361 -0.16752638 -0.086950205 0.01046455
000080 0d 0d 06 3d 72 df 5e bb a3 f5 0f bd 26 ab 07 3d
       0.03272729 -0.0034007696 -0.035146367 0.033122204
000090 33 9a 98 bc ea 23 c8 3c d9 04 f1 3b 12 eb c3 bd
       -0.018628215 0.024431188 0.007355314 -0.095663205
0000a0 a3 49 11 3d 52 c3 18 be 7a 1b 0d be 51 ba 3f bc
       0.035470616 -0.14918259 -0.13780013 -0.011702136
0000b0 b7 c7 a4 bd 6e 02 90 3e 13 e3 3c 3e d8 06 1e 3e
       -0.08045905 0.28126854 0.18445997 0.15432298
0000c0 3c d9 87 3d 0b a7 ae 3d e6 c6 4b 3e 33 27 8a 3e
       0.06633231 0.08527955 0.19900092 0.26983032
0000d0 86 4a 3b 3e 0c 3e 61 3d 85 33 c8 3d 28 c1 62 3e
       0.18290147 0.054990813 0.097754516 0.22143996
0000e0 d4 d9 d0 3d 1b c9 81 bc f8 34 d8 3d 58 ba fa 3d
       0.101977974 -0.015842965 0.10556978 0.122425735
0000f0 54 4a 75 3e 9b 6a 50 3e 3d 62 fc 3d ae 0d d7 bd
       0.23954135 0.20353167 0.12323425 -0.10500656
000100 41 49 b5 bc 2d 92 41 3e 92 6b 41 bc 3e 0e a8 bd
       -0.022129657 0.18903418 -0.011805432 -0.082058415
000110 fc af 4e bc 30 13 2f 3d ca b0 92 3d 19 6a 2d bd
       -0.0126152 0.042742908 0.07162626 -0.04233751
000120 90 52 52 bd c2 26 2a bd b0 51 66 bd 47 bc c1 bd
       -0.05134827 -0.04154087 -0.056230247 -0.09459739
000130 61 60 27 3c f7 d9 13 3e c4 8d f8 bd 7a 06 e9 3d
       0.01021585 0.14438616 -0.12136415 0.113781884
000140 a4 25 8c bd 95 5e 30 be 76 39 a7 bd db b9 e2 ba
       -0.06843117 -0.1722358 -0.08165257 -0.0017297821
000150 43 9c c3 bd 5e 16 d5 bd 71 58 2b be 36 c1 3b 3d
       -0.09551289 -0.10404657 -0.16732956 0.045838557
000160 6a aa c0 bd 1b 55 28 be eb ea c9 bd 13 6a 2a be
       -0.09407504 -0.16438715 -0.0985926 -0.16642027
000170 3e b8 d0 3c 39 51 eb 3c d7 7b a5 3d 53 7e a5 bd
       0.025478479 0.028725253 0.08080261 -0.08080735
000180 a2 9e 35 bc 37 3a 77 bd 46 f2 4a bd 37 79 80 3d
       -0.011085184 -0.060358252 -0.049547456 0.0627312
000190 a3 17 02 3e 9a 97 20 3d f7 2e 84 3d a3 62 b8 3c
       0.12704329 0.03920708 0.0645427 0.022507971
0001a0 7f bb f8 bd fa 73 ac bd d4 86 f1 bd 3a 52 22 3c
       -0.12145137 -0.08420558 -0.117932945 0.0099073
0001b0 05 1b d1 3d 21 96 7c bd a7 fb d9 3c ed 86 b6 3c
       0.10210232 -0.06166661 0.026609255 0.022281135
0001c0 7d ad b9 3d fe 1e 82 3d bf b0 82 bd 60 da c7 3c
       0.090662934 0.063535675 -0.06381368 0.024396122
0001d0 65 82 60 3c 8a d1 40 3e 84 90 e3 3d d0 f3 f2 bd
       0.0137029635 0.18829933 0.111115485 -0.1186291
0001e0 1b 3c bd 3c 93 f3 3f 3d 4b 51 cd 3d b9 b0 2e 3e
       0.02309995 0.04686315 0.10025271 0.17059602
0001f0 72 90 44 3b 8e d4 cd bc fa db 0d 3d be c2 ae 3c
       0.0029993323 -0.025125768 0.034633614 0.021333095
000200 a2 6f 91 3d bc 3f c6 3c 68 da e7 bd c4 d9 48 bd
       0.071013704 0.024200313 -0.113209546 -0.049035802
000210 8f 2f a5 bc ca 5e 08 be 4c e0 58 be 3c 26 3a bc
       -0.02016428 -0.13317409 -0.21179312 -0.011361655
000220 cd 23 88 be 2a 7c 47 bd 0d d8 b1 bd ab 06 10 3e
       -0.26589814 -0.048702396 -0.086837865 0.14065044
000230 4e 91 0b bd 32 44 7b be 3e 4b 20 3d 48 57 c1 bd
       -0.03407412 -0.24537733 0.039134257 -0.09440476
000240 dd c7 a0 3b 74 04 1f 3c 62 cd 29 3d e3 17 0a 3e
       0.004906638 0.009705652 0.041455634 0.13485675
000250 58 28 04 3e 88 d4 1c 3e 60 03 26 3d 3b 1a c8 bd
       0.12906015 0.15315449 0.040530562 -0.09770628
000260 c8 b1 91 bb ab c3 f8 bd ce 33 66 3d cd 7c 1b bc
       -0.004446242 -0.12146696 0.05620175 -0.009490204
000270 c2 cd 75 3d 0f 49 a8 3d 56 60 3f bc d7 69 06 3e
       0.06001068 0.0821706 -0.011680683 0.13126312
000280 3b 46 16 bd 34 d4 7b 3d 64 62 76 bd 34 92 da 3d
       -0.03668807 0.06148167 -0.060152426 0.10672417
000290 c5 a2 69 3e 4d b3 1f bc b0 18 37 bc 6f 6f 02 bc
       0.22815998 -0.0097473385 -0.01117532 -0.007961138
0002a0 01 c1 86 bc 80 88 3f 3e 20 cd c9 bd b4 33 5d bd
       -0.016449453 0.18704414 -0.098535776 -0.054004386
0002b0 2b e7 bb bd 7f 87 5d bd 8c 0f 1a 3e e1 86 a2 bd
       -0.09174951 -0.054084297 0.15044993 -0.07935882
0002c0 13 fb d4 bd 19 4d d6 bd ca 80 ee bd 34 44 90 bd
       -0.10399451 -0.10463924 -0.11645658 -0.07044259
0002d0 fc 03 03 bc a7 59 d5 3d a0 8c 2c 3c 3c ea a0 3d
       -0.007996555 0.104174905 0.0105315745 0.07857177
0002e0 47 b1 34 3d 28 f1 2a 3e ff 97 22 3e 48 2b a5 3d
       0.044114377 0.16693556 0.15878294 0.08064896
0002f0 a9 60 e9 3d 0b 1f 9f b9 25 0c 2d 3e 2a 82 85 3d
       0.113953896 -0.00030349972 0.16899164 0.065189674
000300 99 0e c0 3d d1 76 08 3c a8 10 c9 3d e3 94 6a 3e
       0.09377784 0.008329109 0.0981763 0.22908358
000310 93 c9 18 3e 2e dd 32 3e 9b df 50 3e a2 f3 a7 3c
       0.14920644 0.17467186 0.20397799 0.020501915
000320 46 a1 02 bd f9 64 d0 bd 0c 20 54 bc c5 d8 cb bd
       -0.031892084 -0.10175509 -0.012947094 -0.09953455
000330 a8 9e b1 bc e5 f2 83 bd 68 cd da bd 4a 0f 13 be
       -0.021682099 -0.06442813 -0.106837094 -0.14361301
000340 d7 02 60 be df 5d 99 bc 15 24 58 be 7f 93 87 be
       -0.21876083 -0.018721519 -0.21107514 -0.26479718
000350 f7 9d a5 be ac 47 7d be 3a c0 06 3d e6 c7 cf bd
       -0.3234708 -0.24734372 0.032898165 -0.101455495
000360 32 e9 d8 bd 2f 8b 57 be 04 4f 98 bd 4e 1c 44 3b
       -0.105913535 -0.21049188 -0.07436946 0.0029924097
000370 79 7e ec bd 96 97 1e be f4 4b a2 bd 38 85 5b bd
       -0.1154756 -0.15487513 -0.07924643 -0.053593844
000380 6a 22 82 3d 7b 15 7b 3d 42 b4 94 bd 1c 2d 41 bd
       0.0635422 0.061299782 -0.07260944 -0.04716216
000390 2c 5f 17 bb be 0d 72 3d c2 bf 02 3e 4d 83 21 3e
       -0.0023097498 0.059095137 0.12768462 0.15772744
0003a0 18 53 10 3e ce 79 0a 3e 20 fa 11 3e 44 20 47 3e
       0.14094198 0.13523027 0.14255571 0.19445902
0003b0 81 5f ca 3c 23 76 4a 3d 43 c7 89 bc cd d3 32 3d
       0.024703743 0.04942907 -0.016818648 0.04365902
0003c0 07 a9 81 3e 63 96 60 3e 82 4e 0c 3e 45 34 f7 3d
       0.2532427 0.21932368 0.13701823 0.120705165
0003d0 44 8e 34 3d a9 a6 2e 3e fc 76 29 3e 3d 34 b4 3d
       0.044080988 0.17055763 0.16549295 0.08799026
0003e0 53 b5 43 3d ac 42 83 bc 09 d1 29 3e 7a 8d 27 3e
       0.047780346 -0.016023003 0.16583647 0.16362563
0003f0 ef d5 e7 3d dd e7 19 3d 54 27 0e 3d 74 49 8e 3d
       0.113201015 0.037574638 0.034705475 0.06947604

fc1.bias f4 [120]
000000 d2 a8 b8 3d 0f c1 90 bd b6 07 f8 bd 44 3e 2f bd
       0.09016575 -0.07068073 -0.12110846 -0.04278399
000010 65 33 8a 3d cc 0e 8c be 1f a6 bd 3e 1e 2d 5b bd
       0.06748084 -0.2735504 0.37040803 -0.053509824
000020 f5 22 40 3e 11 7f 3c bc 40 33 af bd 7e 58 e0 bd
       0.18763335 -0.011504904 -0.08554697 -0.109543785
000030 a7 54 6f 3d 84 46 60 bd ea fa 47 bd b6 9e 40 3d
       0.05843034 -0.05475475 -0.048823275 0.04702636
000040 3a bd 99 be 1f 6a 8c 3e 40 9d a4 3d 66 6e e8 3c
       -0.3002718 0.27424714 0.080378056 0.028372955
000050 55 08 08 3b eb f6 d5 bc 24 3e c7 bc 40 d5 e9 ba
       0.002075692 -0.026118716 -0.024321623 -0.0017840043
000060 36 51 0f 3d d2 fb 07 3d 1f f7 98 3c 5a 51 45 be
       0.03498956 0.03319914 0.018672524 -0.19269314
000070 99 da 6f be 61 4f 0e 3c 7e be 66 bd f4 0e 55 bc
       -0.23423232 0.008685918 -0.05633401 -0.013004053
000080 dc 2e 43 3d 69 d2 6b bd 1e 52 94 bc e9 ed 70 3c
       0.04765211 -0.05757371 -0.018105563 0.01470516
000090 34 b8 d2 3e 9d c0 a8 ba 0f a8 88 be 68 df 97 bd
       0.4115616 -0.0012874786 -0.2669072 -0.07415658
0000a0 bd 7f 42 bd c0 54 20 bd d3 e4 cd 3e d6 ff 89 3c
       -0.047485102 -0.039143324 0.40213642 0.016845625
0000b0 8d 93 f8 3d d2 fe 8a bd 9e d3 09 3f 21 6f 83 3c
       0.12137518 -0.06786884 0.5383853 0.016044201
0000c0 74 b2 1a 3f 72 8a ab bd fa 49 91 bc a3 aa a9 bd
       0.6042855 -0.08376016 -0.01773547 -0.082844995
0000d0 e4 fb 59 bc 7c 8a 14 3e 6e ec 9c bb 9b 29 61 bd
       -0.013304684 0.14505953 -0.004788927 -0.05497132
0000e0 e4 67 56 3c 0d e0 91 be 1c d4 fa bb 80 11 61 3e
       0.013086293 -0.2849125 -0.00765468 0.21979332
0000f0 e2 cb d8 3c 20 30 e3 3d 5b 09 f8 3e 61 93 7b bd
       0.026464406 0.110931635 0.48444638 -0.06141985
000100 f2 7d c4 3e 5e 8e 01 3f 1d 9d 8a be e8 4a 1f 3e
       0.3837734 0.5060786 -0.27072993 0.15555918
000110 4e 08 80 bc 4a d2 51 3b 01 9f 93 3e d8 d4 53 bd
       -0.01562896 0.0032016211 0.28832248 -0.051716655
000120 64 fa 8a be 2c 7b 5f 3d 37 fe a7 bc fc 25 93 3e
       -0.27144158 0.054560825 -0.020506961 0.28739917
000130 2e b5 87 3e 76 c0 ff bd 68 18 48 3e 08 d4 6c 3c
       0.26505417 -0.12487881 0.1954056 0.014454849
000140 d7 13 15 be 5c 00 6c 3c 63 b7 65 3c ca 6f 44 3e
       -0.1455835 0.014404383 0.014020774 0.19183269
000150 ef dc 2b be a1 ed 3d bd 14 fe 4d bd f0 28 5a bd
       -0.16783498 -0.0463692 -0.050291136 -0.053261697
000160 be 58 f6 bc a7 00 aa be b4 ff e1 3d 80 f2 33 bd
       -0.030071612 -0.33203623 0.110350996 -0.043932438
000170 3a 15 97 39 a9 7a 72 bd 70 22 b1 3c f8 c7 f3 3b
       0.0002881678 -0.05919901 0.021622866 0.0074396096
000180 7e 66 88 bd 6c 65 83 3d d3 85 ac bc c5 94 60 bd
       -0.06660174 0.06415829 -0.021059906 -0.054829378
000190 67 5d 15 bd 00 bf d1 bd 8c da e2 3e 01 2e e6 bb
       -0.03646603 -0.102415085 0.44307363 -0.007024527
0001a0 bf 3b d8 3d b8 52 b2 bd e8 45 80 3c d0 9a 31 bd
       0.10558271 -0.087071836 0.015658334 -0.04336053
0001b0 40 f0 c4 3c ad 75 a6 bd 4a bf 18 bd 0a 9b 7d bb
       0.024040341 -0.081279136 -0.037291802 -0.0038697147
0001c0 8c 2a cf be 48 43 d6 3e a4 a1 26 bd e0 1a ad 3e
       -0.40462148 0.41848207 -0.040681496 0.33809566
0001d0 b8 2a 9b be 8c 11 58 bd 1f 79 e3 3e d9 e7 0f bd
       -0.3030603 -0.05275111 0.44428346 -0.035133217

fc2.weight f4 [84, 120]
000000 e1 4b 71 bd 2d 16 65 be 24 8f 91 bb 96 94 7b 3d
       -0.058910254 -0.2237174 -0.0044421125 0.061421
000010 0c a8 51 3d 1b a5 00 be 7d d0 03 be 1a cf f3 3d
       0.051185653 -0.12562983 -0.128725 0.11904736
000020 90 64 21 3e 0d d4 9e 3a c5 c6 93 3a db 15 6b bd
       0.15761018 0.0012117639 0.0011274448 -0.05739389
000030 b6 86 08 be ed e6 6a bd e6 d0 0a be dc 4f 87 bd
       -0.13332638 -0.057349134 -0.13556251 -0.06607029
000040 ef 4f da bd 04 f9 77 bd e0 f2 7f 3d 1b f1 03 3d
       -0.106597774 -0.060540214 0.062487483 0.032212358
000050 90 d0 79 bd 17 6b b5 bd 2f 81 05 bd 46 0f ac 3d
       -0.060989916 -0.088583164 -0.032593902 0.08401351
000060 46 65 90 3c 76 7e 80 be 2d c8 c1 3d 15 d7 a8 bd
       0.017626416 -0.25096482 0.094620086 -0.08244149
000070 f9 71 43 bd ba ed 17 3d 93 eb b2 bd 27 16 5a bd
       -0.047716115 0.037091948 -0.087363385 -0.053243782
000080 fd af 96 3d 48 30 40 bc 10 c5 43 3d ea b7 93 bb
       0.07357786 -0.011730261 0.047795355 -0.0045080082
000090 3b 52 95 bd 6a b0 fb bd 76 ba 37 3e 72 6f 5c bd
       -0.07291075 -0.12289508 0.17942223 -0.05381722
0000a0 86 0f 51 bd 30 bb a1 3d 7d c4 d6 bd 04 92 7e 3d
       -0.051040195 0.07897031 -0.10486696 0.06215097
0000b0 dc d2 e9 bd 8a 0b f8 3b 65 53 20 3e 87 f7 f7 3c
       -0.11417171 0.007569735 0.15656812 0.030269397
0000c0 90 d0 14 3d 70 d3 de bc b1 60 47 3d a3 43 c8 3c
       0.036331713 -0.02720043 0.048676196 0.024446314
0000d0 b7 bc fb 3b b9 5d 2d 3d c2 f7 99 bd 46 fd ad bd
       0.0076824087 0.04232571 -0.07517959 -0.08495574
0000e0 e3 df 86 bd ae 4a d3 3d 27 5e 37 3d f2 bd ed bd
       -0.06585672 0.103169784 0.044767525 -0.11608495
0000f0 79 10 c9 bd c0 80 26 3e b8 44 43 bc 3c 3f 45 3c
       -0.09817595 0.16260052 -0.011918239 0.012039002
000100 e4 67 68 3d 95 4b 7f 3e 03 63 99 bc ad 67 43 bc
       0.056739703 0.24931176 -0.01872397 -0.011926574
000110 60 d6 cd bc 3f 32 8f 3c 20 b2 6e bd bf 6e 87 bd
       -0.025126636 0.017480014 -0.058275342 -0.0661292
000120 4e 76 85 3e 8d 86 a6 bd f4 1d f6 bb a8 3d 14 3e
       0.26066822 -0.08131132 -0.007510895 0.14476645
000130 49 aa d5 3d 6f b0 cc bc ef 12 d0 3d 46 f4 12 3e
       0.1043287 -0.024986474 0.10159861 0.14350995
000140 48 5e 12 bd b7 e5 ad bc 37 35 8b bd eb 48 09 3e
       -0.035734445 -0.0212277 -0.06797259 0.13406722
000150 4e 94 a6 bd 9f 74 17 3d f6 4f a7 bb 23 45 ab 3d
       -0.081337556 0.036976453 -0.0051059676 0.08362796
000160 97 92 c4 3c 08 8f 83 bd c5 31 73 bd f9 b9 09 bc
       0.02399568 -0.064237654 -0.059373636 -0.008406156
000170 ad 8c 78 3d ef 15 bc bc 24 6b f4 3c b4 46 97 bd
       0.060681034 -0.022959678 0.029836245 -0.073865324
000180 0e bf 38 bd 77 ed c3 bd 03 f0 a1 bd 0e 1b 55 3e
       -0.04510408 -0.09566777 -0.07907107 0.20811102
000190 39 b6 26 b9 f8 8d 17 3e 14 7a 86 3d 58 62 5c 3d
       -0.00015898877 0.1480025 0.06566253 0.053804725
0001a0 d9 43 bd bd f0 9f 25 be d3 46 7d bd 54 7d 61 bd
       -0.092414565 -0.16174293 -0.06183512 -0.055051163
0001b0 4d 76 80 bd 6d 5f 3e bd 3a 6f 9c 3d 3e 70 06 bd
       -0.06272564 -0.046477724 0.07638402 -0.032821886
0001c0 f2 2e 99 3d 0d e0 d5 3d cf fc 82 bd c8 31 10 3e
       0.07479657 0.10443125 -0.06395876 0.1408149
0001d0 7a 1c 5e bd 0d 04 15 bd fd 3e 3d be 93 56 4c 3d
       -0.054226376 -0.036380816 -0.1848106 0.04988725
0001e0 eb ca ce 3d 8b fe 40 3d fd 81 5f 3e f4 67 ad 3c
       0.10097297 0.04711775 0.2182693 0.021167733
0001f0 1d 5d 14 3e 1c 41 83 3d 19 65 1c bd 7e cd cc bd
       0.14488645 0.06408903 -0.03818235 -0.10000132
000200 e0 75 6c bd 44 42 83 bc 12 f9 16 bc f8 df 0d be
       -0.0577296 -0.016022809 -0.009214656 -0.13854969
000210 42 9a e6 be 9a f5 b2 3d 97 dd 52 bd f0 34 4e 3d
       -0.45039564 0.08738251 -0.051480856 0.050343454
000220 8f 80 bc bd dc d6 71 bd cc 7e 4c bd da 0c 2d bc
       -0.09204208 -0.059042796 -0.04992561 -0.010562146
000230 20 43 eb bd e6 57 9d 3d ac 0c 8a 3d cc ff d7 3d
       -0.114874125 0.07682781 0.06740698 0.10546836
000240 6c bb 97 bd 90 82 0f be 16 bd cd 3d 96 1a 0c 3e
       -0.07408795 -0.1401465 0.10045831 0.13682017
000250 76 48 8f ba f0 5b a6 bc 24 e7 84 3d 20 30 96 bd
       -0.0010931629 -0.020307511 0.06489399 -0.07333398
000260 63 41 b7 bc 10 d5 79 3d ea 36 b7 bd 90 b4 91 3d
       -0.022370046 0.060994208 -0.08946021 0.07114518
000270 65 eb 88 bc 86 b3 8d 3d b2 81 0d 3e 66 5f c0 bc
       -0.016713807 0.06919007 0.13819006 -0.02348299
000280 27 8d cf 3d 92 24 1c b7 47 b3 c7 bc 19 d3 c6 3d
       0.101343445 -9.306839e-06 -0.024377478 0.097082324
000290 84 f4 5d be e2 37 b2 3d cc 8a ad 3d 85 ab 3b bd
       -0.21675307 0.08702065 0.08473739 -0.04581787
0002a0 b8 0c 0a be c1 1d a3 3d 3f 02 b7 bd 79 c5 ca bd
       -0.13481414 0.079646595 -0.08935975 -0.09900946
0002b0 67 51 8e bc 6f 15 2d bb 78 c3 32 3d 67 a7 9c 3d
       -0.0173728 -0.002641048 0.043643445 0.07649117
0002c0 b1 6a 76 bd 1b bb 43 be 9e b3 cb 3d f7 94 c4 bd
       -0.060160343 -0.19114344 0.09946369 -0.09598725
0002d0 09 35 3e bd 8a 0d 6d be 1c a4 9e 3d 6c 58 33 bd
       -0.046437297 -0.23149696 0.07746145 -0.043785498
0002e0 aa af 59 3d 50 50 3c 3e 4c 1d 6f 3d 7f 7f be bd
       0.053146042 0.18390012 0.05837755 -0.09301662
0002f0 a2 55 86 bd a4 61 25 bd bc 17 06 be 34 09 e7 3c
       -0.06559302 -0.04037632 -0.13094991 0.02820263
000300 a9 68 f5 bc b2 76 63 3c 47 31 49 3d b2 c5 cd 3d
       -0.029957132 0.01388328 0.04911926 0.10047473
000310 8f a4 14 be df 84 f2 3d 5d ab 0d 3e 5d a7 95 be
       -0.14515899 0.118417494 0.13834901 -0.2922925
000320 43 50 55 3e b2 91 8c be 53 91 6f bd ab d4 aa bd
       0.20831399 -0.27454907 -0.0584882 -0.083413444
000330 7c 75 2e be fc 17 4f 3d 66 3e 94 3d 7d 08 d6 bd
       -0.17037004 0.050559983 0.07238464 -0.10450838
000340 d0 94 93 3d ed 1b fd bd 50 fb 16 be 28 b8 97 3c
       0.07206118 -0.12358842 -0.14744306 0.01852043
000350 5a 11 90 3b a6 d6 b2 3c 08 b9 b0 bc 94 68 d6 bc
       0.0043965997 0.021830868 -0.021572605 -0.026172914
000360 42 c9 ae bd e6 9d b2 3d 45 e4 ec 3d 31 60 36 3d
       -0.08534481 0.08721523 0.115669765 0.04452533
000370 0d 14 c5 3d 35 3d 6e be 43 ef 86 3d b1 b2 60 3b
       0.09622965 -0.23265536 0.06588604 0.0034286196
000380 79 44 46 be a0 d4 e6 bd b5 6d 72 bb 75 d8 38 bc
       -0.19362058 -0.11271024 -0.003699166 -0.011282076
000390 38 23 6d 3d e9 85 3c 3d b3 b8 3b bd a4 96 86 3d
       0.057894915 0.046026144 -0.04583044 0.06571701
0003a0 7e d0 a7 3d 85 39 f9 3d a5 14 d8 bc ba 3b 97 3d
       0.081940636 0.12169174 -0.026377032 0.07384439
0003b0 2e d4 9c be ce 0c 2a bc 46 9d 9e bc 8e 83 85 3d
       -0.3063063 -0.010379029 -0.019362103 0.06519233
0003c0 1f 1b 80 3d 58 22 45 3c d7 e5 2a be 3d 7c 94 bc
       0.06255173 0.012032114 -0.1668924 -0.018125648
0003d0 ac 09 cc bd 1d 61 58 3d 46 aa 85 be 4e a1 5f 3d
       -0.09962782 0.05282699 -0.2610647 0.05459719
0003e0 7d 6a 8a be 63 61 1c bd 94 d5 bb 3b b9 15 c2 3b
       -0.2703437 -0.038178813 0.0057322476 0.0059229997
0003f0 08 c9 e6 bd 19 ee 89 3d 63 a9 24 3e 9a 30 a6 be
       -0.112688124 0.06734867 0.16080241 -0.32458955

fc2.bias f4 [84]
000000 13 fa 37 3d 6f 5b 1b 3e 8f e9 69 be 5f 9e f4 bd
       0.044916224 0.15171598 -0.22843002 -0.119442694
000010 a5 66 d0 3e ee 1a d3 ba b4 8a e2 3e 9f 14 28 3d
       0.40703312 -0.0016106048 0.44246447 0.04103529
000020 24 d5 3c 3e 7e 0b e7 bd fc f2 2a bd ad 3b 9b 3d
       0.18440682 -0.11281489 -0.041735634 0.075797416
000030 f3 12 64 3e 97 81 b2 3b b6 8f 56 3e da 7c 10 3e
       0.22272854 0.005447577 0.20953259 0.14110127
000040 05 30 6f bd 25 87 ac bd 29 c4 95 3e c3 83 76 3c
       -0.058395404 -0.08424214 0.2925122 0.015046063
000050 d5 53 a8 3d 4b 3b c9 3e fe e8 4b bd 0c bb 53 be
       0.08219115 0.3930305 -0.049782746 -0.20676821
000060 a9 88 11 3f 38 77 1f 3d 3e 69 8b 3c 83 3a 3c 3d
       0.5684915 0.038932055 0.017017957 0.04595424
000070 e3 17 38 3d 80 f1 3a be 02 76 fd 3e 81 ac e6 3d
       0.044944655 -0.18256187 0.49504095 0.11263371
000080 95 e1 31 bc 2d 05 ef 3d 1b 28 dd 3d 0e d5 18 3e
       -0.010857006 0.11670909 0.10798665 0.14925024
000090 3a 18 a6 bd fa 4b 8e 3d 3c a0 36 3e bf 70 07 be
       -0.081100896 0.06948085 0.17834562 -0.13226603
0000a0 b3 f5 cd 3e 91 95 b5 3b 88 de 8f 3e 1e b4 65 bc
       0.40226516 0.0055415113 0.28099465 -0.014019994
0000b0 45 dd 27 be 45 39 a3 bd de 21 cd bd 61 b1 e2 bd
       -0.16393001 -0.07969908 -0.10016225 -0.110689886
0000c0 8e 2e 9d 3d 25 6e 46 bd d3 09 60 3c a7 18 0c 3e
       0.07674895 -0.048444886 0.013674217 0.13681279
0000d0 5f 08 3f bd 96 a9 7d bd d2 60 bb bd 81 01 f4 3c
       -0.046638843 -0.061929308 -0.091493264 0.029785873
0000e0 4b b7 97 3e 8d bc 1c be 5a 62 0c 3c 99 ee d7 bd
       0.2963203 -0.15306301 0.008568371 -0.10543556
0000f0 65 c2 52 be c1 92 7e be 2c 28 3c be 3d db f8 3e
       -0.20581968 -0.2486067 -0.183747 0.48604766
000100 03 65 3d 3e f3 a6 ce 3e 15 c5 d5 3d 01 75 1e bd
       0.18495564 0.40361747 0.10437981 -0.038685802
000110 07 86 d6 3d 58 cc a0 3e 92 1f fd bd 4d 5e ce 3d
       0.104747824 0.31405902 -0.12359537 0.1007658
000120 3e 09 0c be 0b 8b 2e 3e 0b 35 44 be 76 80 f2 bc
       -0.136754 0.17045228 -0.1916086 -0.02960227
000130 67 6c e6 3e 70 ae 09 be a7 e2 0f be 66 b2 d4 bd
       0.4500458 -0.13445449 -0.14051305 -0.10385589
000140 31 64 28 3c 0b 5b 1b 3e ac 84 05 bc 6d 15 07 3f
       0.010277794 0.15171449 -0.008149307 0.5276707

fc3.weight f4 [10, 84]
000000 b8 00 f6 bd b3 89 00 be 72 8a 01 3e 48 93 7b bc
       -0.12011856 -0.12552528 0.12650469 -0.015354939
000010 78 7e d7 bd e4 4b 04 bd 59 36 83 be 6a f5 8c 3c
       -0.10522169 -0.032298937 -0.256274 0.017206866
000020 28 fe 93 bb 32 f3 5d 3c 0f e7 8c bc 9b a4 6f bd
       -0.004516382 0.013546752 -0.017200021 -0.05850659
000030 ae b7 5e bd 59 78 43 3d 3d 2b d7 bc 9d 04 42 3e
       -0.05437439 0.047722194 -0.026265735 0.18947072
000040 49 45 9a 3d f4 96 ed 3c ad fb 04 bd 42 a2 da 3d
       0.07532746 0.029002644 -0.03246658 0.106754795
000050 85 83 31 3e a8 24 8a be e4 21 df bd 6f d4 38 3e
       0.17335327 -0.26981091 -0.10895136 0.18049787
000060 7f a3 2f be fc 5c 12 3d 43 d1 6a be f6 3d bc be
       -0.17152213 0.035733208 -0.2293139 -0.36766022
000070 0a 82 95 3d bf a0 3f 3e 87 8d 8f be ea 97 80 be
       0.073001936 0.18713664 -0.28037664 -0.251159
000080 7a 66 e8 3d b8 b0 68 3c 0c d4 1c be 76 04 ab 3d
       0.11347671 0.014202289 -0.15315264 0.0835046
000090 ad da e8 3d 1e fd c7 3d 89 d8 cb bc 25 b1 3b bd
       0.11369834 0.09765075 -0.024883525 -0.045823235
0000a0 5f 22 00 be d7 f7 09 3e 3b 34 49 3d 0e a7 b8 be
       -0.12513112 0.1347345 0.049122076 -0.36064953
0000b0 52 5f 2b 3e ff 45 2e be 7c 0c a2 bc ee a7 b5 3d
       0.1673558 -0.17018889 -0.019781344 0.08869921
0000c0 5d d7 2c 3c 56 d8 d0 bd 05 96 5e 3d 2d 18 2e be
       0.0105493935 -0.10197513 0.05434229 -0.1700141
0000d0 a2 8b bb bd b7 8a e4 3c a5 12 29 3e 63 dd 78 3d
       -0.09157492 0.027898176 0.16511019 0.060758006
0000e0 f1 c8 9e 3e 06 2a cf bc 77 e6 e8 3c 73 6c 0d be
       0.3101268 -0.025288593 0.028430207 -0.13810901
0000f0 10 d7 68 3d 5f 75 85 3d aa fc 17 3e e6 3f 16 bf
       0.056845725 0.065165274 0.14842477 -0.5869125
000100 f6 42 76 3d 19 95 cc bd cd f0 9d 3d 45 ec 78 bd
       0.060122453 -0.099893756 0.07711945 -0.0607722
000110 ed 8e 68 3d ff 05 bf bb 72 7a a3 bd 68 f9 40 3d
       0.05677693 -0.005829572 -0.07982339 0.047112852
000120 79 34 b7 3e 83 83 8b 3d be c3 24 3c 50 1d 39 3e
       0.3578222 0.06812193 0.010056434 0.18077588
000130 a9 ce 9c 3b c4 a9 69 bd d1 68 24 3b c8 c3 24 3e
       0.004785378 -0.057046667 0.002508689 0.1609031
000140 1a 87 3b 3e 37 02 07 3e 3a 23 8f be a4 1f a6 be
       0.18313256 0.13184439 -0.27956563 -0.32446015
000150 21 69 3f be c7 42 8a 3d 89 39 01 3e 49 86 05 be
       -0.18692447 0.06751018 0.12619604 -0.13039507
000160 25 0f e7 bd 15 f7 ac bc 06 46 86 3d cc 41 a2 bd
       -0.112821855 -0.021113912 0.06556325 -0.07922706
000170 bf cc 4e 3d c4 c1 a0 3d 5a 14 ba 3c 53 ca 4f be
       0.05048823 0.07849458 0.022714783 -0.20292024
000180 8d 71 ca bd 2d d4 cc bd 91 9b a7 be 44 02 a0 be
       -0.09884939 -0.10001407 -0.32735875 -0.3125173
000190 09 c1 49 3e dd 9d e1 3d 3e 74 18 3e 01 e0 8d 3b
       0.19702543 0.11016438 0.14888093 0.004329682
0001a0 62 bd 51 be 80 f4 90 3c 40 fd 21 3d 1a 7a 08 3e
       -0.204824 0.017694712 0.03954816 0.13327828
0001b0 64 4e c5 bd 2c 88 d1 3d a8 46 e8 3d 34 ef 81 3e
       -0.096340925 0.10231051 0.113416016 0.2537781
0001c0 fe c3 96 bd 14 ac e1 3d 16 31 dd 3d ee 27 18 be
       -0.07361601 0.110191494 0.10800378 -0.14858982
0001d0 92 d5 06 bd 8f a1 7a 3d cc 96 7a bd cd bc 2b 3d
       -0.03291852 0.06118923 -0.061178967 0.0419281
0001e0 53 6a af 3d f8 5c 34 be 73 7b 1b be a6 5c c5 bb
       0.085652016 -0.1761359 -0.15183811 -0.0060230074
0001f0 19 71 17 bf 2e 97 08 3e 21 3f 86 3d 98 5d 20 3d
       -0.5915695 0.1333892 0.0655501 0.039151758
000200 39 54 40 bd 9f b8 4d 3e 2b 89 28 be ed c5 2e bd
       -0.04695532 0.20089959 -0.16458575 -0.042669225
000210 8c c2 40 3e fd 8e 8a 3b ee 92 2a 3c cd 32 c5 bb
       0.18824214 0.0042284713 0.010411007 -0.006018019
000220 dc 03 4f be bd de 15 3e 2c 89 55 be 37 09 39 3e
       -0.20216316 0.14635749 -0.20853108 0.18069921
000230 14 aa fd bd ea b1 db bc e4 08 2f 3c c0 58 b4 bd
       -0.123859555 -0.026818234 0.010683272 -0.0880599
000240 4c 28 47 3e eb ad 8b bd 5a cc 21 3e 49 76 52 bc
       0.19448966 -0.068202816 0.1580061 -0.012845584
000250 23 e3 0f be 73 5f 6d bc 1c 61 07 be 60 ad 23 3d
       -0.1405149 -0.014488089 -0.13220638 0.039960265
000260 21 14 87 bd e8 c3 01 be c3 0d 8e bd 02 b7 22 bd
       -0.06595636 -0.12672389 -0.069362186 -0.03972531
000270 10 10 e6 bc 26 c2 8c 3b c9 fe ba 3d 3d ec 9f bd
       -0.028083831 0.0042956052 0.09130628 -0.07808731
000280 09 8a 6b be 8b 4e 18 3e 26 dc d9 bd 0f 7e 32 bd
       -0.23001875 0.14873712 -0.10637693 -0.04357725
000290 56 af cc 3d bb dc 6b be 07 76 98 bd af 71 cc bd
       0.0999438 -0.2303342 -0.07444387 -0.09982621
0002a0 5f 69 0b 3e 68 cf 7e bd 4e eb 1d be 9d f5 09 bd
       0.13614415 -0.062209517 -0.15421793 -0.0336815
0002b0 8c ed f4 bc 3d f4 d1 3d 37 8f 14 3e 3b 17 39 bc
       -0.029898427 0.10251663 0.14507757 -0.0112970425
0002c0 da 2c 62 3e eb 46 9c 3c 0d 2a 5d 3d 5c 49 94 bd
       0.22087422 0.019076785 0.05399518 -0.07240555
0002d0 0a 6e 06 be 39 f6 83 3e 7c b4 10 be cc 71 06 be
       -0.13127914 0.2577379 -0.1413135 -0.13129348
0002e0 7a c9 a4 be 99 e3 82 3d 3f 63 0a be 6f 36 b1 be
       -0.32184964 0.06391067 -0.13514422 -0.34611842
0002f0 5c 8f 6b 3e ea 13 43 bc 0a 7a 8f bd d3 b8 ae 3c
       0.23003906 -0.011906603 -0.07005699 0.021328365
000300 2e 11 38 3e 88 d4 62 be e0 71 71 be bf 29 c5 3d
       0.17975304 -0.22151387 -0.23578596 0.09627103
000310 13 12 84 3d aa 17 01 3e 0b 37 6c 3c 1f 6b 60 be
       0.0644876 0.12606683 0.01441742 -0.21915863
000320 ed 5d 2e 3e a1 9d 05 be 78 80 ef 3d a3 29 e9 3b
       0.17028017 -0.13048412 0.11694425 0.007115559
000330 ca 84 75 bd f4 05 10 3e 42 08 b9 bc 46 ce 85 bd
       -0.05994109 0.14064771 -0.022586945 -0.06533484
000340 1d d9 c2 3d 8b a4 f6 3d f6 cd bb bd e3 48 c0 3d
       0.09514067 0.12043103 -0.09170143 0.09388902
000350 4a c3 95 bd e8 a4 81 be cd 13 97 3b 3f a6 34 3b
       -0.07312639 -0.25321126 0.0046105147 0.002756491
000360 33 25 7e be 9e c9 f5 bc b5 d7 94 bd 1d 21 ba bd
       -0.24818878 -0.030003365 -0.07267705 -0.09088347
000370 0f d5 81 be 85 f4 17 3c 09 0c ed bc 89 06 dd 3d
       -0.25357863 0.009274607 -0.028936403 0.10792262
000380 f0 27 72 bc 8e 70 42 bd 23 91 0e be bc 42 02 3f
       -0.01478003 -0.04747062 -0.13922553 0.5088308
000390 30 e2 61 be 0d a3 10 3e a1 6e e9 3d 14 cf 89 3c
       -0.2205894 0.14124699 0.11398054 0.016822375
0003a0 1e 0e 37 3e 2e b0 6e be 1c 74 5f 3e c6 dd 42 be
       0.17876479 -0.23309395 0.21821636 -0.19029912
0003b0 c4 e8 83 bd 11 2b 81 bc 13 03 82 bb 38 4b 8f 3d
       -0.06440881 -0.015767606 -0.0039676516 0.06996769
0003c0 b4 6b 8c 3c f5 cb 7e bd 5b f7 f9 3d 3e 31 dd be
       0.0171412 -0.062206227 0.122053824 -0.4320163
0003d0 a0 d8 84 3e a8 dc 1a be 0a da 5a 3e 08 ff 91 3d
       0.25946522 -0.15123236 0.21372238 0.071287215
0003e0 57 47 3f be 4e 3e 30 3e eb d8 fa bd 45 f6 fb 3d
       -0.18679558 0.17211267 -0.12248405 0.123028316
0003f0 40 05 1e bd 2c 79 0e 3d da 50 6d bd 35 b6 ee bd
       -0.038579226 0.034783527 -0.057938434 -0.11655847

fc3.bias f4 [10]
000000 62 4f 82 be 29 ca 07 be e1 25 42 bb a0 52 66 3e
       -0.2545119 -0.13260712 -0.0029624628 0.22492456
000010 82 f7 5c 3e c3 62 5a be 5a db 21 3e 97 59 6c 3b
       0.21578792 -0.21326737 0.15806332 0.0036064142
000020 4a cd ca bc c4 72 07 be
       -0.024756093 -0.13227373
